program(1.0)
[buildInfo = dict<tensor<string, []>, tensor<string, []>>({{"coremlc-component-MIL", "3405.2.1"}, {"coremlc-version", "3404.23.1"}, {"coremltools-component-torch", "2.2.2"}, {"coremltools-source-dialect", "TorchScript"}, {"coremltools-version", "8.3.0"}})]
{
    func main<ios16>(tensor<fp32, [1, 3, 224, 224]> input_1) {
            tensor<fp32, []> input_1__scaled___y_0 = const()[name = tensor<string, []>("input_1__scaled___y_0"), val = tensor<fp32, []>(0x1.1c4bep-6)];
            tensor<fp32, [1, 3, 224, 224]> input_1__scaled__ = mul(x = input_1, y = input_1__scaled___y_0)[name = tensor<string, []>("input_1__scaled__")];
            tensor<fp32, [1, 3, 1, 1]> input_1__biased___y_0 = const()[name = tensor<string, []>("input_1__biased___y_0"), val = tensor<fp32, [1, 3, 1, 1]>([[[[-0x1.0f177ap+1]], [[-0x1.04924ap+1]], [[-0x1.cdf012p+0]]]])];
            tensor<fp32, [1, 3, 224, 224]> input_1__biased__ = add(x = input_1__scaled__, y = input_1__biased___y_0)[name = tensor<string, []>("input_1__biased__")];
            tensor<string, []> input_1_pad_type_0 = const()[name = tensor<string, []>("input_1_pad_type_0"), val = tensor<string, []>("custom")];
            tensor<int32, [4]> input_1_pad_0 = const()[name = tensor<string, []>("input_1_pad_0"), val = tensor<int32, [4]>([1, 1, 1, 1])];
            tensor<int32, [2]> input_1_strides_0 = const()[name = tensor<string, []>("input_1_strides_0"), val = tensor<int32, [2]>([2, 2])];
            tensor<int32, [2]> input_1_dilations_0 = const()[name = tensor<string, []>("input_1_dilations_0"), val = tensor<int32, [2]>([1, 1])];
            tensor<int32, []> input_1_groups_0 = const()[name = tensor<string, []>("input_1_groups_0"), val = tensor<int32, []>(1)];
            tensor<string, []> input_1_to_fp16_dtype_0 = const()[name = tensor<string, []>("input_1_to_fp16_dtype_0"), val = tensor<string, []>("fp16")];
            tensor<fp16, [32, 3, 3, 3]> const_61_to_fp16 = const()[name = tensor<string, []>("const_61_to_fp16"), val = tensor<fp16, [32, 3, 3, 3]>(BLOBFILE(path = tensor<string, []>("@model_path/weights/weight.bin"), offset = tensor<uint64, []>(64)))];
            tensor<fp16, [32]> const_62_to_fp16 = const()[name = tensor<string, []>("const_62_to_fp16"), val = tensor<fp16, [32]>(BLOBFILE(path = tensor<string, []>("@model_path/weights/weight.bin"), offset = tensor<uint64, []>(1856)))];
            tensor<fp16, [1, 3, 224, 224]> input_1_to_fp16 = cast(dtype = input_1_to_fp16_dtype_0, x = input_1__biased__)[name = tensor<string, []>("cast_66")];
            tensor<fp16, [1, 32, 112, 112]> input_3_cast_fp16 = conv(bias = const_62_to_fp16, dilations = input_1_dilations_0, groups = input_1_groups_0, pad = input_1_pad_0, pad_type = input_1_pad_type_0, strides = input_1_strides_0, weight = const_61_to_fp16, x = input_1_to_fp16)[name = tensor<string, []>("input_3_cast_fp16")];
            tensor<string, []> input_5_mode_0 = const()[name = tensor<string, []>("input_5_mode_0"), val = tensor<string, []>("EXACT")];
            tensor<fp16, [1, 32, 112, 112]> input_5_cast_fp16 = gelu(mode = input_5_mode_0, x = input_3_cast_fp16)[name = tensor<string, []>("input_5_cast_fp16")];
            tensor<string, []> input_7_pad_type_0 = const()[name = tensor<string, []>("input_7_pad_type_0"), val = tensor<string, []>("custom")];
            tensor<int32, [4]> input_7_pad_0 = const()[name = tensor<string, []>("input_7_pad_0"), val = tensor<int32, [4]>([1, 1, 1, 1])];
            tensor<int32, [2]> input_7_strides_0 = const()[name = tensor<string, []>("input_7_strides_0"), val = tensor<int32, [2]>([2, 2])];
            tensor<int32, [2]> input_7_dilations_0 = const()[name = tensor<string, []>("input_7_dilations_0"), val = tensor<int32, [2]>([1, 1])];
            tensor<int32, []> input_7_groups_0 = const()[name = tensor<string, []>("input_7_groups_0"), val = tensor<int32, []>(1)];
            tensor<fp16, [64, 32, 3, 3]> const_63_to_fp16 = const()[name = tensor<string, []>("const_63_to_fp16"), val = tensor<fp16, [64, 32, 3, 3]>(BLOBFILE(path = tensor<string, []>("@model_path/weights/weight.bin"), offset = tensor<uint64, []>(1984)))];
            tensor<fp16, [64]> const_64_to_fp16 = const()[name = tensor<string, []>("const_64_to_fp16"), val = tensor<fp16, [64]>(BLOBFILE(path = tensor<string, []>("@model_path/weights/weight.bin"), offset = tensor<uint64, []>(38912)))];
            tensor<fp16, [1, 64, 56, 56]> input_9_cast_fp16 = conv(bias = const_64_to_fp16, dilations = input_7_dilations_0, groups = input_7_groups_0, pad = input_7_pad_0, pad_type = input_7_pad_type_0, strides = input_7_strides_0, weight = const_63_to_fp16, x = input_5_cast_fp16)[name = tensor<string, []>("input_9_cast_fp16")];
            tensor<string, []> input_11_pad_type_0 = const()[name = tensor<string, []>("input_11_pad_type_0"), val = tensor<string, []>("valid")];
            tensor<int32, [2]> input_11_strides_0 = const()[name = tensor<string, []>("input_11_strides_0"), val = tensor<int32, [2]>([1, 1])];
            tensor<int32, [4]> input_11_pad_0 = const()[name = tensor<string, []>("input_11_pad_0"), val = tensor<int32, [4]>([0, 0, 0, 0])];
            tensor<int32, [2]> input_11_dilations_0 = const()[name = tensor<string, []>("input_11_dilations_0"), val = tensor<int32, [2]>([1, 1])];
            tensor<int32, []> input_11_groups_0 = const()[name = tensor<string, []>("input_11_groups_0"), val = tensor<int32, []>(1)];
            tensor<fp16, [256, 64, 1, 1]> const_65_to_fp16 = const()[name = tensor<string, []>("const_65_to_fp16"), val = tensor<fp16, [256, 64, 1, 1]>(BLOBFILE(path = tensor<string, []>("@model_path/weights/weight.bin"), offset = tensor<uint64, []>(39104)))];
            tensor<fp16, [256]> const_66_to_fp16 = const()[name = tensor<string, []>("const_66_to_fp16"), val = tensor<fp16, [256]>(BLOBFILE(path = tensor<string, []>("@model_path/weights/weight.bin"), offset = tensor<uint64, []>(71936)))];
            tensor<fp16, [1, 256, 56, 56]> input_13_cast_fp16 = conv(bias = const_66_to_fp16, dilations = input_11_dilations_0, groups = input_11_groups_0, pad = input_11_pad_0, pad_type = input_11_pad_type_0, strides = input_11_strides_0, weight = const_65_to_fp16, x = input_9_cast_fp16)[name = tensor<string, []>("input_13_cast_fp16")];
            tensor<string, []> input_15_mode_0 = const()[name = tensor<string, []>("input_15_mode_0"), val = tensor<string, []>("EXACT")];
            tensor<fp16, [1, 256, 56, 56]> input_15_cast_fp16 = gelu(mode = input_15_mode_0, x = input_13_cast_fp16)[name = tensor<string, []>("input_15_cast_fp16")];
            tensor<string, []> input_17_pad_type_0 = const()[name = tensor<string, []>("input_17_pad_type_0"), val = tensor<string, []>("custom")];
            tensor<int32, [4]> input_17_pad_0 = const()[name = tensor<string, []>("input_17_pad_0"), val = tensor<int32, [4]>([1, 1, 1, 1])];
            tensor<int32, []> input_17_groups_0 = const()[name = tensor<string, []>("input_17_groups_0"), val = tensor<int32, []>(256)];
            tensor<int32, [2]> input_17_strides_0 = const()[name = tensor<string, []>("input_17_strides_0"), val = tensor<int32, [2]>([1, 1])];
            tensor<int32, [2]> input_17_dilations_0 = const()[name = tensor<string, []>("input_17_dilations_0"), val = tensor<int32, [2]>([1, 1])];
            tensor<fp16, [256, 1, 3, 3]> const_67_to_fp16 = const()[name = tensor<string, []>("const_67_to_fp16"), val = tensor<fp16, [256, 1, 3, 3]>(BLOBFILE(path = tensor<string, []>("@model_path/weights/weight.bin"), offset = tensor<uint64, []>(72512)))];
            tensor<fp16, [256]> const_68_to_fp16 = const()[name = tensor<string, []>("const_68_to_fp16"), val = tensor<fp16, [256]>(BLOBFILE(path = tensor<string, []>("@model_path/weights/weight.bin"), offset = tensor<uint64, []>(77184)))];
            tensor<fp16, [1, 256, 56, 56]> input_19_cast_fp16 = conv(bias = const_68_to_fp16, dilations = input_17_dilations_0, groups = input_17_groups_0, pad = input_17_pad_0, pad_type = input_17_pad_type_0, strides = input_17_strides_0, weight = const_67_to_fp16, x = input_15_cast_fp16)[name = tensor<string, []>("input_19_cast_fp16")];
            tensor<string, []> input_21_mode_0 = const()[name = tensor<string, []>("input_21_mode_0"), val = tensor<string, []>("EXACT")];
            tensor<fp16, [1, 256, 56, 56]> input_21_cast_fp16 = gelu(mode = input_21_mode_0, x = input_19_cast_fp16)[name = tensor<string, []>("input_21_cast_fp16")];
            tensor<string, []> input_23_pad_type_0 = const()[name = tensor<string, []>("input_23_pad_type_0"), val = tensor<string, []>("valid")];
            tensor<int32, [2]> input_23_strides_0 = const()[name = tensor<string, []>("input_23_strides_0"), val = tensor<int32, [2]>([1, 1])];
            tensor<int32, [4]> input_23_pad_0 = const()[name = tensor<string, []>("input_23_pad_0"), val = tensor<int32, [4]>([0, 0, 0, 0])];
            tensor<int32, [2]> input_23_dilations_0 = const()[name = tensor<string, []>("input_23_dilations_0"), val = tensor<int32, [2]>([1, 1])];
            tensor<int32, []> input_23_groups_0 = const()[name = tensor<string, []>("input_23_groups_0"), val = tensor<int32, []>(1)];
            tensor<fp16, [64, 256, 1, 1]> const_69_to_fp16 = const()[name = tensor<string, []>("const_69_to_fp16"), val = tensor<fp16, [64, 256, 1, 1]>(BLOBFILE(path = tensor<string, []>("@model_path/weights/weight.bin"), offset = tensor<uint64, []>(77760)))];
            tensor<fp16, [64]> const_70_to_fp16 = const()[name = tensor<string, []>("const_70_to_fp16"), val = tensor<fp16, [64]>(BLOBFILE(path = tensor<string, []>("@model_path/weights/weight.bin"), offset = tensor<uint64, []>(110592)))];
            tensor<fp16, [1, 64, 56, 56]> x_1_cast_fp16 = conv(bias = const_70_to_fp16, dilations = input_23_dilations_0, groups = input_23_groups_0, pad = input_23_pad_0, pad_type = input_23_pad_type_0, strides = input_23_strides_0, weight = const_69_to_fp16, x = input_21_cast_fp16)[name = tensor<string, []>("x_1_cast_fp16")];
            tensor<fp16, [1, 64, 56, 56]> input_25_cast_fp16 = add(x = x_1_cast_fp16, y = input_9_cast_fp16)[name = tensor<string, []>("input_25_cast_fp16")];
            tensor<string, []> input_27_mode_0 = const()[name = tensor<string, []>("input_27_mode_0"), val = tensor<string, []>("EXACT")];
            tensor<fp16, [1, 64, 56, 56]> input_27_cast_fp16 = gelu(mode = input_27_mode_0, x = input_25_cast_fp16)[name = tensor<string, []>("input_27_cast_fp16")];
            tensor<string, []> input_29_pad_type_0 = const()[name = tensor<string, []>("input_29_pad_type_0"), val = tensor<string, []>("valid")];
            tensor<int32, [2]> input_29_strides_0 = const()[name = tensor<string, []>("input_29_strides_0"), val = tensor<int32, [2]>([1, 1])];
            tensor<int32, [4]> input_29_pad_0 = const()[name = tensor<string, []>("input_29_pad_0"), val = tensor<int32, [4]>([0, 0, 0, 0])];
            tensor<int32, [2]> input_29_dilations_0 = const()[name = tensor<string, []>("input_29_dilations_0"), val = tensor<int32, [2]>([1, 1])];
            tensor<int32, []> input_29_groups_0 = const()[name = tensor<string, []>("input_29_groups_0"), val = tensor<int32, []>(1)];
            tensor<fp16, [256, 64, 1, 1]> const_71_to_fp16 = const()[name = tensor<string, []>("const_71_to_fp16"), val = tensor<fp16, [256, 64, 1, 1]>(BLOBFILE(path = tensor<string, []>("@model_path/weights/weight.bin"), offset = tensor<uint64, []>(110784)))];
            tensor<fp16, [256]> const_72_to_fp16 = const()[name = tensor<string, []>("const_72_to_fp16"), val = tensor<fp16, [256]>(BLOBFILE(path = tensor<string, []>("@model_path/weights/weight.bin"), offset = tensor<uint64, []>(143616)))];
            tensor<fp16, [1, 256, 56, 56]> input_31_cast_fp16 = conv(bias = const_72_to_fp16, dilations = input_29_dilations_0, groups = input_29_groups_0, pad = input_29_pad_0, pad_type = input_29_pad_type_0, strides = input_29_strides_0, weight = const_71_to_fp16, x = input_27_cast_fp16)[name = tensor<string, []>("input_31_cast_fp16")];
            tensor<string, []> input_33_mode_0 = const()[name = tensor<string, []>("input_33_mode_0"), val = tensor<string, []>("EXACT")];
            tensor<fp16, [1, 256, 56, 56]> input_33_cast_fp16 = gelu(mode = input_33_mode_0, x = input_31_cast_fp16)[name = tensor<string, []>("input_33_cast_fp16")];
            tensor<string, []> input_35_pad_type_0 = const()[name = tensor<string, []>("input_35_pad_type_0"), val = tensor<string, []>("custom")];
            tensor<int32, [4]> input_35_pad_0 = const()[name = tensor<string, []>("input_35_pad_0"), val = tensor<int32, [4]>([1, 1, 1, 1])];
            tensor<int32, []> input_35_groups_0 = const()[name = tensor<string, []>("input_35_groups_0"), val = tensor<int32, []>(256)];
            tensor<int32, [2]> input_35_strides_0 = const()[name = tensor<string, []>("input_35_strides_0"), val = tensor<int32, [2]>([1, 1])];
            tensor<int32, [2]> input_35_dilations_0 = const()[name = tensor<string, []>("input_35_dilations_0"), val = tensor<int32, [2]>([1, 1])];
            tensor<fp16, [256, 1, 3, 3]> const_73_to_fp16 = const()[name = tensor<string, []>("const_73_to_fp16"), val = tensor<fp16, [256, 1, 3, 3]>(BLOBFILE(path = tensor<string, []>("@model_path/weights/weight.bin"), offset = tensor<uint64, []>(144192)))];
            tensor<fp16, [256]> const_74_to_fp16 = const()[name = tensor<string, []>("const_74_to_fp16"), val = tensor<fp16, [256]>(BLOBFILE(path = tensor<string, []>("@model_path/weights/weight.bin"), offset = tensor<uint64, []>(148864)))];
            tensor<fp16, [1, 256, 56, 56]> input_37_cast_fp16 = conv(bias = const_74_to_fp16, dilations = input_35_dilations_0, groups = input_35_groups_0, pad = input_35_pad_0, pad_type = input_35_pad_type_0, strides = input_35_strides_0, weight = const_73_to_fp16, x = input_33_cast_fp16)[name = tensor<string, []>("input_37_cast_fp16")];
            tensor<string, []> input_39_mode_0 = const()[name = tensor<string, []>("input_39_mode_0"), val = tensor<string, []>("EXACT")];
            tensor<fp16, [1, 256, 56, 56]> input_39_cast_fp16 = gelu(mode = input_39_mode_0, x = input_37_cast_fp16)[name = tensor<string, []>("input_39_cast_fp16")];
            tensor<string, []> input_41_pad_type_0 = const()[name = tensor<string, []>("input_41_pad_type_0"), val = tensor<string, []>("valid")];
            tensor<int32, [2]> input_41_strides_0 = const()[name = tensor<string, []>("input_41_strides_0"), val = tensor<int32, [2]>([1, 1])];
            tensor<int32, [4]> input_41_pad_0 = const()[name = tensor<string, []>("input_41_pad_0"), val = tensor<int32, [4]>([0, 0, 0, 0])];
            tensor<int32, [2]> input_41_dilations_0 = const()[name = tensor<string, []>("input_41_dilations_0"), val = tensor<int32, [2]>([1, 1])];
            tensor<int32, []> input_41_groups_0 = const()[name = tensor<string, []>("input_41_groups_0"), val = tensor<int32, []>(1)];
            tensor<fp16, [64, 256, 1, 1]> const_75_to_fp16 = const()[name = tensor<string, []>("const_75_to_fp16"), val = tensor<fp16, [64, 256, 1, 1]>(BLOBFILE(path = tensor<string, []>("@model_path/weights/weight.bin"), offset = tensor<uint64, []>(149440)))];
            tensor<fp16, [64]> const_76_to_fp16 = const()[name = tensor<string, []>("const_76_to_fp16"), val = tensor<fp16, [64]>(BLOBFILE(path = tensor<string, []>("@model_path/weights/weight.bin"), offset = tensor<uint64, []>(182272)))];
            tensor<fp16, [1, 64, 56, 56]> x_3_cast_fp16 = conv(bias = const_76_to_fp16, dilations = input_41_dilations_0, groups = input_41_groups_0, pad = input_41_pad_0, pad_type = input_41_pad_type_0, strides = input_41_strides_0, weight = const_75_to_fp16, x = input_39_cast_fp16)[name = tensor<string, []>("x_3_cast_fp16")];
            tensor<fp16, [1, 64, 56, 56]> input_43_cast_fp16 = add(x = x_3_cast_fp16, y = input_27_cast_fp16)[name = tensor<string, []>("input_43_cast_fp16")];
            tensor<string, []> input_45_mode_0 = const()[name = tensor<string, []>("input_45_mode_0"), val = tensor<string, []>("EXACT")];
            tensor<fp16, [1, 64, 56, 56]> input_45_cast_fp16 = gelu(mode = input_45_mode_0, x = input_43_cast_fp16)[name = tensor<string, []>("input_45_cast_fp16")];
            tensor<string, []> input_47_pad_type_0 = const()[name = tensor<string, []>("input_47_pad_type_0"), val = tensor<string, []>("valid")];
            tensor<int32, [2]> input_47_strides_0 = const()[name = tensor<string, []>("input_47_strides_0"), val = tensor<int32, [2]>([1, 1])];
            tensor<int32, [4]> input_47_pad_0 = const()[name = tensor<string, []>("input_47_pad_0"), val = tensor<int32, [4]>([0, 0, 0, 0])];
            tensor<int32, [2]> input_47_dilations_0 = const()[name = tensor<string, []>("input_47_dilations_0"), val = tensor<int32, [2]>([1, 1])];
            tensor<int32, []> input_47_groups_0 = const()[name = tensor<string, []>("input_47_groups_0"), val = tensor<int32, []>(1)];
            tensor<fp16, [128, 64, 1, 1]> const_77_to_fp16 = const()[name = tensor<string, []>("const_77_to_fp16"), val = tensor<fp16, [128, 64, 1, 1]>(BLOBFILE(path = tensor<string, []>("@model_path/weights/weight.bin"), offset = tensor<uint64, []>(182464)))];
            tensor<fp16, [128]> const_78_to_fp16 = const()[name = tensor<string, []>("const_78_to_fp16"), val = tensor<fp16, [128]>(BLOBFILE(path = tensor<string, []>("@model_path/weights/weight.bin"), offset = tensor<uint64, []>(198912)))];
            tensor<fp16, [1, 128, 56, 56]> input_49_cast_fp16 = conv(bias = const_78_to_fp16, dilations = input_47_dilations_0, groups = input_47_groups_0, pad = input_47_pad_0, pad_type = input_47_pad_type_0, strides = input_47_strides_0, weight = const_77_to_fp16, x = input_45_cast_fp16)[name = tensor<string, []>("input_49_cast_fp16")];
            tensor<string, []> input_51_mode_0 = const()[name = tensor<string, []>("input_51_mode_0"), val = tensor<string, []>("EXACT")];
            tensor<fp16, [1, 128, 56, 56]> input_51_cast_fp16 = gelu(mode = input_51_mode_0, x = input_49_cast_fp16)[name = tensor<string, []>("input_51_cast_fp16")];
            tensor<string, []> input_53_pad_type_0 = const()[name = tensor<string, []>("input_53_pad_type_0"), val = tensor<string, []>("custom")];
            tensor<int32, [4]> input_53_pad_0 = const()[name = tensor<string, []>("input_53_pad_0"), val = tensor<int32, [4]>([1, 1, 1, 1])];
            tensor<int32, [2]> input_53_strides_0 = const()[name = tensor<string, []>("input_53_strides_0"), val = tensor<int32, [2]>([2, 2])];
            tensor<int32, []> input_53_groups_0 = const()[name = tensor<string, []>("input_53_groups_0"), val = tensor<int32, []>(128)];
            tensor<int32, [2]> input_53_dilations_0 = const()[name = tensor<string, []>("input_53_dilations_0"), val = tensor<int32, [2]>([1, 1])];
            tensor<fp16, [128, 1, 3, 3]> const_79_to_fp16 = const()[name = tensor<string, []>("const_79_to_fp16"), val = tensor<fp16, [128, 1, 3, 3]>(BLOBFILE(path = tensor<string, []>("@model_path/weights/weight.bin"), offset = tensor<uint64, []>(199232)))];
            tensor<fp16, [128]> const_80_to_fp16 = const()[name = tensor<string, []>("const_80_to_fp16"), val = tensor<fp16, [128]>(BLOBFILE(path = tensor<string, []>("@model_path/weights/weight.bin"), offset = tensor<uint64, []>(201600)))];
            tensor<fp16, [1, 128, 28, 28]> input_55_cast_fp16 = conv(bias = const_80_to_fp16, dilations = input_53_dilations_0, groups = input_53_groups_0, pad = input_53_pad_0, pad_type = input_53_pad_type_0, strides = input_53_strides_0, weight = const_79_to_fp16, x = input_51_cast_fp16)[name = tensor<string, []>("input_55_cast_fp16")];
            tensor<string, []> input_57_mode_0 = const()[name = tensor<string, []>("input_57_mode_0"), val = tensor<string, []>("EXACT")];
            tensor<fp16, [1, 128, 28, 28]> input_57_cast_fp16 = gelu(mode = input_57_mode_0, x = input_55_cast_fp16)[name = tensor<string, []>("input_57_cast_fp16")];
            tensor<string, []> input_59_pad_type_0 = const()[name = tensor<string, []>("input_59_pad_type_0"), val = tensor<string, []>("valid")];
            tensor<int32, [2]> input_59_strides_0 = const()[name = tensor<string, []>("input_59_strides_0"), val = tensor<int32, [2]>([1, 1])];
            tensor<int32, [4]> input_59_pad_0 = const()[name = tensor<string, []>("input_59_pad_0"), val = tensor<int32, [4]>([0, 0, 0, 0])];
            tensor<int32, [2]> input_59_dilations_0 = const()[name = tensor<string, []>("input_59_dilations_0"), val = tensor<int32, [2]>([1, 1])];
            tensor<int32, []> input_59_groups_0 = const()[name = tensor<string, []>("input_59_groups_0"), val = tensor<int32, []>(1)];
            tensor<fp16, [128, 128, 1, 1]> const_81_to_fp16 = const()[name = tensor<string, []>("const_81_to_fp16"), val = tensor<fp16, [128, 128, 1, 1]>(BLOBFILE(path = tensor<string, []>("@model_path/weights/weight.bin"), offset = tensor<uint64, []>(201920)))];
            tensor<fp16, [128]> const_82_to_fp16 = const()[name = tensor<string, []>("const_82_to_fp16"), val = tensor<fp16, [128]>(BLOBFILE(path = tensor<string, []>("@model_path/weights/weight.bin"), offset = tensor<uint64, []>(234752)))];
            tensor<fp16, [1, 128, 28, 28]> x_5_cast_fp16 = conv(bias = const_82_to_fp16, dilations = input_59_dilations_0, groups = input_59_groups_0, pad = input_59_pad_0, pad_type = input_59_pad_type_0, strides = input_59_strides_0, weight = const_81_to_fp16, x = input_57_cast_fp16)[name = tensor<string, []>("x_5_cast_fp16")];
            tensor<int32, [4]> var_215 = const()[name = tensor<string, []>("op_215"), val = tensor<int32, [4]>([0, 2, 3, 1])];
            tensor<int32, [4]> reshape_0_shape_0 = const()[name = tensor<string, []>("reshape_0_shape_0"), val = tensor<int32, [4]>([4, 7, 4, 896])];
            tensor<fp16, [1, 28, 28, 128]> x_7_cast_fp16 = transpose(perm = var_215, x = x_5_cast_fp16)[name = tensor<string, []>("transpose_133")];
            tensor<fp16, [4, 7, 4, 896]> reshape_0_cast_fp16 = reshape(shape = reshape_0_shape_0, x = x_7_cast_fp16)[name = tensor<string, []>("reshape_0_cast_fp16")];
            tensor<int32, [4]> transpose_20_perm_0 = const()[name = tensor<string, []>("transpose_20_perm_0"), val = tensor<int32, [4]>([0, 2, 1, 3])];
            tensor<int32, [3]> reshape_1_shape_0 = const()[name = tensor<string, []>("reshape_1_shape_0"), val = tensor<int32, [3]>([16, 49, 128])];
            tensor<fp16, [4, 4, 7, 896]> transpose_20_cast_fp16 = transpose(perm = transpose_20_perm_0, x = reshape_0_cast_fp16)[name = tensor<string, []>("transpose_132")];
            tensor<fp16, [16, 49, 128]> reshape_1_cast_fp16 = reshape(shape = reshape_1_shape_0, x = transpose_20_cast_fp16)[name = tensor<string, []>("reshape_1_cast_fp16")];
            tensor<int32, [1]> input_61_axes_0 = const()[name = tensor<string, []>("input_61_axes_0"), val = tensor<int32, [1]>([-1])];
            tensor<fp16, [128]> model_stages_1_blocks_0_attn_norm_weight_to_fp16 = const()[name = tensor<string, []>("model_stages_1_blocks_0_attn_norm_weight_to_fp16"), val = tensor<fp16, [128]>(BLOBFILE(path = tensor<string, []>("@model_path/weights/weight.bin"), offset = tensor<uint64, []>(235072)))];
            tensor<fp16, [128]> model_stages_1_blocks_0_attn_norm_bias_to_fp16 = const()[name = tensor<string, []>("model_stages_1_blocks_0_attn_norm_bias_to_fp16"), val = tensor<fp16, [128]>(BLOBFILE(path = tensor<string, []>("@model_path/weights/weight.bin"), offset = tensor<uint64, []>(235392)))];
            tensor<fp16, []> var_62_to_fp16 = const()[name = tensor<string, []>("op_62_to_fp16"), val = tensor<fp16, []>(0x1.5p-17)];
            tensor<fp16, [16, 49, 128]> input_61_cast_fp16 = layer_norm(axes = input_61_axes_0, beta = model_stages_1_blocks_0_attn_norm_bias_to_fp16, epsilon = var_62_to_fp16, gamma = model_stages_1_blocks_0_attn_norm_weight_to_fp16, x = reshape_1_cast_fp16)[name = tensor<string, []>("input_61_cast_fp16")];
            tensor<fp16, [384, 128]> model_stages_1_blocks_0_attn_qkv_weight_to_fp16 = const()[name = tensor<string, []>("model_stages_1_blocks_0_attn_qkv_weight_to_fp16"), val = tensor<fp16, [384, 128]>(BLOBFILE(path = tensor<string, []>("@model_path/weights/weight.bin"), offset = tensor<uint64, []>(235712)))];
            tensor<fp16, [384]> model_stages_1_blocks_0_attn_qkv_bias_to_fp16 = const()[name = tensor<string, []>("model_stages_1_blocks_0_attn_qkv_bias_to_fp16"), val = tensor<fp16, [384]>(BLOBFILE(path = tensor<string, []>("@model_path/weights/weight.bin"), offset = tensor<uint64, []>(334080)))];
            tensor<fp16, [16, 49, 384]> linear_0_cast_fp16 = linear(bias = model_stages_1_blocks_0_attn_qkv_bias_to_fp16, weight = model_stages_1_blocks_0_attn_qkv_weight_to_fp16, x = input_61_cast_fp16)[name = tensor<string, []>("linear_0_cast_fp16")];
            tensor<int32, [4]> var_272 = const()[name = tensor<string, []>("op_272"), val = tensor<int32, [4]>([16, 49, 4, -1])];
            tensor<fp16, [16, 49, 4, 96]> var_273_cast_fp16 = reshape(shape = var_272, x = linear_0_cast_fp16)[name = tensor<string, []>("op_273_cast_fp16")];
            tensor<int32, [3]> var_274 = const()[name = tensor<string, []>("op_274"), val = tensor<int32, [3]>([32, 32, 32])];
            tensor<int32, []> var_275_axis_0 = const()[name = tensor<string, []>("op_275_axis_0"), val = tensor<int32, []>(3)];
            tensor<fp16, [16, 49, 4, 32]> var_275_cast_fp16_0, tensor<fp16, [16, 49, 4, 32]> var_275_cast_fp16_1, tensor<fp16, [16, 49, 4, 32]> var_275_cast_fp16_2 = split(axis = var_275_axis_0, split_sizes = var_274, x = var_273_cast_fp16)[name = tensor<string, []>("op_275_cast_fp16")];
            tensor<int32, [4]> var_283 = const()[name = tensor<string, []>("op_283"), val = tensor<int32, [4]>([0, 2, 1, 3])];
            tensor<fp16, []> mul_0_y_0_to_fp16 = const()[name = tensor<string, []>("mul_0_y_0_to_fp16"), val = tensor<fp16, []>(0x1.6ap-3)];
            tensor<fp16, [16, 49, 4, 32]> mul_0_cast_fp16 = mul(x = var_275_cast_fp16_0, y = mul_0_y_0_to_fp16)[name = tensor<string, []>("mul_0_cast_fp16")];
            tensor<bool, []> matmul_0_transpose_y_0 = const()[name = tensor<string, []>("matmul_0_transpose_y_0"), val = tensor<bool, []>(true)];
            tensor<bool, []> matmul_0_transpose_x_0 = const()[name = tensor<string, []>("matmul_0_transpose_x_0"), val = tensor<bool, []>(false)];
            tensor<int32, [4]> transpose_44_perm_0 = const()[name = tensor<string, []>("transpose_44_perm_0"), val = tensor<int32, [4]>([0, 2, -3, -1])];
            tensor<int32, [4]> transpose_45_perm_0 = const()[name = tensor<string, []>("transpose_45_perm_0"), val = tensor<int32, [4]>([0, 2, -3, -1])];
            tensor<fp16, [16, 4, 49, 32]> transpose_45 = transpose(perm = transpose_45_perm_0, x = var_275_cast_fp16_1)[name = tensor<string, []>("transpose_129")];
            tensor<fp16, [16, 4, 49, 32]> transpose_44 = transpose(perm = transpose_44_perm_0, x = mul_0_cast_fp16)[name = tensor<string, []>("transpose_130")];
            tensor<fp16, [16, 4, 49, 49]> matmul_0_cast_fp16 = matmul(transpose_x = matmul_0_transpose_x_0, transpose_y = matmul_0_transpose_y_0, x = transpose_44, y = transpose_45)[name = tensor<string, []>("matmul_0_cast_fp16")];
            tensor<fp16, [4, 49, 49]> attn_bias_1_to_fp16 = const()[name = tensor<string, []>("attn_bias_1_to_fp16"), val = tensor<fp16, [4, 49, 49]>(BLOBFILE(path = tensor<string, []>("@model_path/weights/weight.bin"), offset = tensor<uint64, []>(334912)))];
            tensor<fp16, [16, 4, 49, 49]> add_0_cast_fp16 = add(x = matmul_0_cast_fp16, y = attn_bias_1_to_fp16)[name = tensor<string, []>("add_0_cast_fp16")];
            tensor<int32, []> softmax_0_axis_0 = const()[name = tensor<string, []>("softmax_0_axis_0"), val = tensor<int32, []>(-1)];
            tensor<fp16, [16, 4, 49, 49]> softmax_0_cast_fp16 = softmax(axis = softmax_0_axis_0, x = add_0_cast_fp16)[name = tensor<string, []>("softmax_0_cast_fp16")];
            tensor<bool, []> x_11_transpose_x_0 = const()[name = tensor<string, []>("x_11_transpose_x_0"), val = tensor<bool, []>(false)];
            tensor<bool, []> x_11_transpose_y_0 = const()[name = tensor<string, []>("x_11_transpose_y_0"), val = tensor<bool, []>(false)];
            tensor<fp16, [16, 4, 49, 32]> v_3_cast_fp16 = transpose(perm = var_283, x = var_275_cast_fp16_2)[name = tensor<string, []>("transpose_131")];
            tensor<fp16, [16, 4, 49, 32]> x_11_cast_fp16 = matmul(transpose_x = x_11_transpose_x_0, transpose_y = x_11_transpose_y_0, x = softmax_0_cast_fp16, y = v_3_cast_fp16)[name = tensor<string, []>("x_11_cast_fp16")];
            tensor<int32, [4]> var_286_perm_0 = const()[name = tensor<string, []>("op_286_perm_0"), val = tensor<int32, [4]>([0, 2, 1, 3])];
            tensor<int32, [3]> var_287 = const()[name = tensor<string, []>("op_287"), val = tensor<int32, [3]>([16, 49, 128])];
            tensor<fp16, [16, 49, 4, 32]> var_286_cast_fp16 = transpose(perm = var_286_perm_0, x = x_11_cast_fp16)[name = tensor<string, []>("transpose_128")];
            tensor<fp16, [16, 49, 128]> input_63_cast_fp16 = reshape(shape = var_287, x = var_286_cast_fp16)[name = tensor<string, []>("input_63_cast_fp16")];
            tensor<fp16, [128, 128]> model_stages_1_blocks_0_attn_proj_weight_to_fp16 = const()[name = tensor<string, []>("model_stages_1_blocks_0_attn_proj_weight_to_fp16"), val = tensor<fp16, [128, 128]>(BLOBFILE(path = tensor<string, []>("@model_path/weights/weight.bin"), offset = tensor<uint64, []>(354240)))];
            tensor<fp16, [128]> model_stages_1_blocks_0_attn_proj_bias_to_fp16 = const()[name = tensor<string, []>("model_stages_1_blocks_0_attn_proj_bias_to_fp16"), val = tensor<fp16, [128]>(BLOBFILE(path = tensor<string, []>("@model_path/weights/weight.bin"), offset = tensor<uint64, []>(387072)))];
            tensor<fp16, [16, 49, 128]> linear_1_cast_fp16 = linear(bias = model_stages_1_blocks_0_attn_proj_bias_to_fp16, weight = model_stages_1_blocks_0_attn_proj_weight_to_fp16, x = input_63_cast_fp16)[name = tensor<string, []>("linear_1_cast_fp16")];
            tensor<int32, [4]> reshape_2_shape_0 = const()[name = tensor<string, []>("reshape_2_shape_0"), val = tensor<int32, [4]>([4, 4, 7, 896])];
            tensor<fp16, [4, 4, 7, 896]> reshape_2_cast_fp16 = reshape(shape = reshape_2_shape_0, x = linear_1_cast_fp16)[name = tensor<string, []>("reshape_2_cast_fp16")];
            tensor<int32, [4]> transpose_21_perm_0 = const()[name = tensor<string, []>("transpose_21_perm_0"), val = tensor<int32, [4]>([0, 2, 1, 3])];
            tensor<int32, [4]> reshape_3_shape_0 = const()[name = tensor<string, []>("reshape_3_shape_0"), val = tensor<int32, [4]>([1, 28, 28, 128])];
            tensor<fp16, [4, 7, 4, 896]> transpose_21_cast_fp16 = transpose(perm = transpose_21_perm_0, x = reshape_2_cast_fp16)[name = tensor<string, []>("transpose_127")];
            tensor<fp16, [1, 28, 28, 128]> reshape_3_cast_fp16 = reshape(shape = reshape_3_shape_0, x = transpose_21_cast_fp16)[name = tensor<string, []>("reshape_3_cast_fp16")];
            tensor<fp16, [1, 28, 28, 128]> x_17_cast_fp16 = add(x = x_7_cast_fp16, y = reshape_3_cast_fp16)[name = tensor<string, []>("x_17_cast_fp16")];
            tensor<int32, [4]> var_298 = const()[name = tensor<string, []>("op_298"), val = tensor<int32, [4]>([0, 3, 1, 2])];
            tensor<string, []> input_67_pad_type_0 = const()[name = tensor<string, []>("input_67_pad_type_0"), val = tensor<string, []>("custom")];
            tensor<int32, [4]> input_67_pad_0 = const()[name = tensor<string, []>("input_67_pad_0"), val = tensor<int32, [4]>([1, 1, 1, 1])];
            tensor<int32, []> input_67_groups_0 = const()[name = tensor<string, []>("input_67_groups_0"), val = tensor<int32, []>(128)];
            tensor<int32, [2]> input_67_strides_0 = const()[name = tensor<string, []>("input_67_strides_0"), val = tensor<int32, [2]>([1, 1])];
            tensor<int32, [2]> input_67_dilations_0 = const()[name = tensor<string, []>("input_67_dilations_0"), val = tensor<int32, [2]>([1, 1])];
            tensor<fp16, [128, 1, 3, 3]> const_83_to_fp16 = const()[name = tensor<string, []>("const_83_to_fp16"), val = tensor<fp16, [128, 1, 3, 3]>(BLOBFILE(path = tensor<string, []>("@model_path/weights/weight.bin"), offset = tensor<uint64, []>(387392)))];
            tensor<fp16, [128]> const_84_to_fp16 = const()[name = tensor<string, []>("const_84_to_fp16"), val = tensor<fp16, [128]>(BLOBFILE(path = tensor<string, []>("@model_path/weights/weight.bin"), offset = tensor<uint64, []>(389760)))];
            tensor<fp16, [1, 128, 28, 28]> input_65_cast_fp16 = transpose(perm = var_298, x = x_17_cast_fp16)[name = tensor<string, []>("transpose_126")];
            tensor<fp16, [1, 128, 28, 28]> x_19_cast_fp16 = conv(bias = const_84_to_fp16, dilations = input_67_dilations_0, groups = input_67_groups_0, pad = input_67_pad_0, pad_type = input_67_pad_type_0, strides = input_67_strides_0, weight = const_83_to_fp16, x = input_65_cast_fp16)[name = tensor<string, []>("x_19_cast_fp16")];
            tensor<int32, [3]> var_313 = const()[name = tensor<string, []>("op_313"), val = tensor<int32, [3]>([1, 128, 784])];
            tensor<fp16, [1, 128, 784]> var_314_cast_fp16 = reshape(shape = var_313, x = x_19_cast_fp16)[name = tensor<string, []>("op_314_cast_fp16")];
            tensor<int32, [3]> input_69_perm_0 = const()[name = tensor<string, []>("input_69_perm_0"), val = tensor<int32, [3]>([0, 2, 1])];
            tensor<int32, [1]> input_71_axes_0 = const()[name = tensor<string, []>("input_71_axes_0"), val = tensor<int32, [1]>([-1])];
            tensor<fp16, [128]> model_stages_1_blocks_0_mlp_norm_weight_to_fp16 = const()[name = tensor<string, []>("model_stages_1_blocks_0_mlp_norm_weight_to_fp16"), val = tensor<fp16, [128]>(BLOBFILE(path = tensor<string, []>("@model_path/weights/weight.bin"), offset = tensor<uint64, []>(390080)))];
            tensor<fp16, [128]> model_stages_1_blocks_0_mlp_norm_bias_to_fp16 = const()[name = tensor<string, []>("model_stages_1_blocks_0_mlp_norm_bias_to_fp16"), val = tensor<fp16, [128]>(BLOBFILE(path = tensor<string, []>("@model_path/weights/weight.bin"), offset = tensor<uint64, []>(390400)))];
            tensor<fp16, [1, 784, 128]> input_69_cast_fp16 = transpose(perm = input_69_perm_0, x = var_314_cast_fp16)[name = tensor<string, []>("transpose_125")];
            tensor<fp16, [1, 784, 128]> input_71_cast_fp16 = layer_norm(axes = input_71_axes_0, beta = model_stages_1_blocks_0_mlp_norm_bias_to_fp16, epsilon = var_62_to_fp16, gamma = model_stages_1_blocks_0_mlp_norm_weight_to_fp16, x = input_69_cast_fp16)[name = tensor<string, []>("input_71_cast_fp16")];
            tensor<fp16, [512, 128]> model_stages_1_blocks_0_mlp_fc1_weight_to_fp16 = const()[name = tensor<string, []>("model_stages_1_blocks_0_mlp_fc1_weight_to_fp16"), val = tensor<fp16, [512, 128]>(BLOBFILE(path = tensor<string, []>("@model_path/weights/weight.bin"), offset = tensor<uint64, []>(390720)))];
            tensor<fp16, [512]> model_stages_1_blocks_0_mlp_fc1_bias_to_fp16 = const()[name = tensor<string, []>("model_stages_1_blocks_0_mlp_fc1_bias_to_fp16"), val = tensor<fp16, [512]>(BLOBFILE(path = tensor<string, []>("@model_path/weights/weight.bin"), offset = tensor<uint64, []>(521856)))];
            tensor<fp16, [1, 784, 512]> linear_2_cast_fp16 = linear(bias = model_stages_1_blocks_0_mlp_fc1_bias_to_fp16, weight = model_stages_1_blocks_0_mlp_fc1_weight_to_fp16, x = input_71_cast_fp16)[name = tensor<string, []>("linear_2_cast_fp16")];
            tensor<string, []> input_75_mode_0 = const()[name = tensor<string, []>("input_75_mode_0"), val = tensor<string, []>("EXACT")];
            tensor<fp16, [1, 784, 512]> input_75_cast_fp16 = gelu(mode = input_75_mode_0, x = linear_2_cast_fp16)[name = tensor<string, []>("input_75_cast_fp16")];
            tensor<fp16, [128, 512]> model_stages_1_blocks_0_mlp_fc2_weight_to_fp16 = const()[name = tensor<string, []>("model_stages_1_blocks_0_mlp_fc2_weight_to_fp16"), val = tensor<fp16, [128, 512]>(BLOBFILE(path = tensor<string, []>("@model_path/weights/weight.bin"), offset = tensor<uint64, []>(522944)))];
            tensor<fp16, [128]> model_stages_1_blocks_0_mlp_fc2_bias_to_fp16 = const()[name = tensor<string, []>("model_stages_1_blocks_0_mlp_fc2_bias_to_fp16"), val = tensor<fp16, [128]>(BLOBFILE(path = tensor<string, []>("@model_path/weights/weight.bin"), offset = tensor<uint64, []>(654080)))];
            tensor<fp16, [1, 784, 128]> linear_3_cast_fp16 = linear(bias = model_stages_1_blocks_0_mlp_fc2_bias_to_fp16, weight = model_stages_1_blocks_0_mlp_fc2_weight_to_fp16, x = input_75_cast_fp16)[name = tensor<string, []>("linear_3_cast_fp16")];
            tensor<fp16, [1, 784, 128]> x_21_cast_fp16 = add(x = input_69_cast_fp16, y = linear_3_cast_fp16)[name = tensor<string, []>("x_21_cast_fp16")];
            tensor<int32, [4]> var_333 = const()[name = tensor<string, []>("op_333"), val = tensor<int32, [4]>([1, 28, 28, 128])];
            tensor<fp16, [1, 28, 28, 128]> x_23_cast_fp16 = reshape(shape = var_333, x = x_21_cast_fp16)[name = tensor<string, []>("x_23_cast_fp16")];
            tensor<int32, [4]> reshape_4_shape_0 = const()[name = tensor<string, []>("reshape_4_shape_0"), val = tensor<int32, [4]>([4, 7, 4, 896])];
            tensor<fp16, [4, 7, 4, 896]> reshape_4_cast_fp16 = reshape(shape = reshape_4_shape_0, x = x_23_cast_fp16)[name = tensor<string, []>("reshape_4_cast_fp16")];
            tensor<int32, [4]> transpose_22_perm_0 = const()[name = tensor<string, []>("transpose_22_perm_0"), val = tensor<int32, [4]>([0, 2, 1, 3])];
            tensor<int32, [3]> reshape_5_shape_0 = const()[name = tensor<string, []>("reshape_5_shape_0"), val = tensor<int32, [3]>([16, 49, 128])];
            tensor<fp16, [4, 4, 7, 896]> transpose_22_cast_fp16 = transpose(perm = transpose_22_perm_0, x = reshape_4_cast_fp16)[name = tensor<string, []>("transpose_124")];
            tensor<fp16, [16, 49, 128]> reshape_5_cast_fp16 = reshape(shape = reshape_5_shape_0, x = transpose_22_cast_fp16)[name = tensor<string, []>("reshape_5_cast_fp16")];
            tensor<int32, [1]> input_81_axes_0 = const()[name = tensor<string, []>("input_81_axes_0"), val = tensor<int32, [1]>([-1])];
            tensor<fp16, [128]> model_stages_1_blocks_1_attn_norm_weight_to_fp16 = const()[name = tensor<string, []>("model_stages_1_blocks_1_attn_norm_weight_to_fp16"), val = tensor<fp16, [128]>(BLOBFILE(path = tensor<string, []>("@model_path/weights/weight.bin"), offset = tensor<uint64, []>(654400)))];
            tensor<fp16, [128]> model_stages_1_blocks_1_attn_norm_bias_to_fp16 = const()[name = tensor<string, []>("model_stages_1_blocks_1_attn_norm_bias_to_fp16"), val = tensor<fp16, [128]>(BLOBFILE(path = tensor<string, []>("@model_path/weights/weight.bin"), offset = tensor<uint64, []>(654720)))];
            tensor<fp16, [16, 49, 128]> input_81_cast_fp16 = layer_norm(axes = input_81_axes_0, beta = model_stages_1_blocks_1_attn_norm_bias_to_fp16, epsilon = var_62_to_fp16, gamma = model_stages_1_blocks_1_attn_norm_weight_to_fp16, x = reshape_5_cast_fp16)[name = tensor<string, []>("input_81_cast_fp16")];
            tensor<fp16, [384, 128]> model_stages_1_blocks_1_attn_qkv_weight_to_fp16 = const()[name = tensor<string, []>("model_stages_1_blocks_1_attn_qkv_weight_to_fp16"), val = tensor<fp16, [384, 128]>(BLOBFILE(path = tensor<string, []>("@model_path/weights/weight.bin"), offset = tensor<uint64, []>(655040)))];
            tensor<fp16, [384]> model_stages_1_blocks_1_attn_qkv_bias_to_fp16 = const()[name = tensor<string, []>("model_stages_1_blocks_1_attn_qkv_bias_to_fp16"), val = tensor<fp16, [384]>(BLOBFILE(path = tensor<string, []>("@model_path/weights/weight.bin"), offset = tensor<uint64, []>(753408)))];
            tensor<fp16, [16, 49, 384]> linear_4_cast_fp16 = linear(bias = model_stages_1_blocks_1_attn_qkv_bias_to_fp16, weight = model_stages_1_blocks_1_attn_qkv_weight_to_fp16, x = input_81_cast_fp16)[name = tensor<string, []>("linear_4_cast_fp16")];
            tensor<int32, [4]> var_388 = const()[name = tensor<string, []>("op_388"), val = tensor<int32, [4]>([16, 49, 4, -1])];
            tensor<fp16, [16, 49, 4, 96]> var_389_cast_fp16 = reshape(shape = var_388, x = linear_4_cast_fp16)[name = tensor<string, []>("op_389_cast_fp16")];
            tensor<int32, [3]> var_390 = const()[name = tensor<string, []>("op_390"), val = tensor<int32, [3]>([32, 32, 32])];
            tensor<int32, []> var_391_axis_0 = const()[name = tensor<string, []>("op_391_axis_0"), val = tensor<int32, []>(3)];
            tensor<fp16, [16, 49, 4, 32]> var_391_cast_fp16_0, tensor<fp16, [16, 49, 4, 32]> var_391_cast_fp16_1, tensor<fp16, [16, 49, 4, 32]> var_391_cast_fp16_2 = split(axis = var_391_axis_0, split_sizes = var_390, x = var_389_cast_fp16)[name = tensor<string, []>("op_391_cast_fp16")];
            tensor<int32, [4]> var_399 = const()[name = tensor<string, []>("op_399"), val = tensor<int32, [4]>([0, 2, 1, 3])];
            tensor<fp16, []> mul_1_y_0_to_fp16 = const()[name = tensor<string, []>("mul_1_y_0_to_fp16"), val = tensor<fp16, []>(0x1.6ap-3)];
            tensor<fp16, [16, 49, 4, 32]> mul_1_cast_fp16 = mul(x = var_391_cast_fp16_0, y = mul_1_y_0_to_fp16)[name = tensor<string, []>("mul_1_cast_fp16")];
            tensor<bool, []> matmul_1_transpose_y_0 = const()[name = tensor<string, []>("matmul_1_transpose_y_0"), val = tensor<bool, []>(true)];
            tensor<bool, []> matmul_1_transpose_x_0 = const()[name = tensor<string, []>("matmul_1_transpose_x_0"), val = tensor<bool, []>(false)];
            tensor<int32, [4]> transpose_46_perm_0 = const()[name = tensor<string, []>("transpose_46_perm_0"), val = tensor<int32, [4]>([0, 2, -3, -1])];
            tensor<int32, [4]> transpose_47_perm_0 = const()[name = tensor<string, []>("transpose_47_perm_0"), val = tensor<int32, [4]>([0, 2, -3, -1])];
            tensor<fp16, [16, 4, 49, 32]> transpose_47 = transpose(perm = transpose_47_perm_0, x = var_391_cast_fp16_1)[name = tensor<string, []>("transpose_121")];
            tensor<fp16, [16, 4, 49, 32]> transpose_46 = transpose(perm = transpose_46_perm_0, x = mul_1_cast_fp16)[name = tensor<string, []>("transpose_122")];
            tensor<fp16, [16, 4, 49, 49]> matmul_1_cast_fp16 = matmul(transpose_x = matmul_1_transpose_x_0, transpose_y = matmul_1_transpose_y_0, x = transpose_46, y = transpose_47)[name = tensor<string, []>("matmul_1_cast_fp16")];
            tensor<fp16, [4, 49, 49]> attn_bias_3_to_fp16 = const()[name = tensor<string, []>("attn_bias_3_to_fp16"), val = tensor<fp16, [4, 49, 49]>(BLOBFILE(path = tensor<string, []>("@model_path/weights/weight.bin"), offset = tensor<uint64, []>(754240)))];
            tensor<fp16, [16, 4, 49, 49]> add_1_cast_fp16 = add(x = matmul_1_cast_fp16, y = attn_bias_3_to_fp16)[name = tensor<string, []>("add_1_cast_fp16")];
            tensor<int32, []> softmax_1_axis_0 = const()[name = tensor<string, []>("softmax_1_axis_0"), val = tensor<int32, []>(-1)];
            tensor<fp16, [16, 4, 49, 49]> softmax_1_cast_fp16 = softmax(axis = softmax_1_axis_0, x = add_1_cast_fp16)[name = tensor<string, []>("softmax_1_cast_fp16")];
            tensor<bool, []> x_27_transpose_x_0 = const()[name = tensor<string, []>("x_27_transpose_x_0"), val = tensor<bool, []>(false)];
            tensor<bool, []> x_27_transpose_y_0 = const()[name = tensor<string, []>("x_27_transpose_y_0"), val = tensor<bool, []>(false)];
            tensor<fp16, [16, 4, 49, 32]> v_7_cast_fp16 = transpose(perm = var_399, x = var_391_cast_fp16_2)[name = tensor<string, []>("transpose_123")];
            tensor<fp16, [16, 4, 49, 32]> x_27_cast_fp16 = matmul(transpose_x = x_27_transpose_x_0, transpose_y = x_27_transpose_y_0, x = softmax_1_cast_fp16, y = v_7_cast_fp16)[name = tensor<string, []>("x_27_cast_fp16")];
            tensor<int32, [4]> var_402_perm_0 = const()[name = tensor<string, []>("op_402_perm_0"), val = tensor<int32, [4]>([0, 2, 1, 3])];
            tensor<int32, [3]> var_403 = const()[name = tensor<string, []>("op_403"), val = tensor<int32, [3]>([16, 49, 128])];
            tensor<fp16, [16, 49, 4, 32]> var_402_cast_fp16 = transpose(perm = var_402_perm_0, x = x_27_cast_fp16)[name = tensor<string, []>("transpose_120")];
            tensor<fp16, [16, 49, 128]> input_83_cast_fp16 = reshape(shape = var_403, x = var_402_cast_fp16)[name = tensor<string, []>("input_83_cast_fp16")];
            tensor<fp16, [128, 128]> model_stages_1_blocks_1_attn_proj_weight_to_fp16 = const()[name = tensor<string, []>("model_stages_1_blocks_1_attn_proj_weight_to_fp16"), val = tensor<fp16, [128, 128]>(BLOBFILE(path = tensor<string, []>("@model_path/weights/weight.bin"), offset = tensor<uint64, []>(773568)))];
            tensor<fp16, [128]> model_stages_1_blocks_1_attn_proj_bias_to_fp16 = const()[name = tensor<string, []>("model_stages_1_blocks_1_attn_proj_bias_to_fp16"), val = tensor<fp16, [128]>(BLOBFILE(path = tensor<string, []>("@model_path/weights/weight.bin"), offset = tensor<uint64, []>(806400)))];
            tensor<fp16, [16, 49, 128]> linear_5_cast_fp16 = linear(bias = model_stages_1_blocks_1_attn_proj_bias_to_fp16, weight = model_stages_1_blocks_1_attn_proj_weight_to_fp16, x = input_83_cast_fp16)[name = tensor<string, []>("linear_5_cast_fp16")];
            tensor<int32, [4]> reshape_6_shape_0 = const()[name = tensor<string, []>("reshape_6_shape_0"), val = tensor<int32, [4]>([4, 4, 7, 896])];
            tensor<fp16, [4, 4, 7, 896]> reshape_6_cast_fp16 = reshape(shape = reshape_6_shape_0, x = linear_5_cast_fp16)[name = tensor<string, []>("reshape_6_cast_fp16")];
            tensor<int32, [4]> transpose_23_perm_0 = const()[name = tensor<string, []>("transpose_23_perm_0"), val = tensor<int32, [4]>([0, 2, 1, 3])];
            tensor<int32, [4]> reshape_7_shape_0 = const()[name = tensor<string, []>("reshape_7_shape_0"), val = tensor<int32, [4]>([1, 28, 28, 128])];
            tensor<fp16, [4, 7, 4, 896]> transpose_23_cast_fp16 = transpose(perm = transpose_23_perm_0, x = reshape_6_cast_fp16)[name = tensor<string, []>("transpose_119")];
            tensor<fp16, [1, 28, 28, 128]> reshape_7_cast_fp16 = reshape(shape = reshape_7_shape_0, x = transpose_23_cast_fp16)[name = tensor<string, []>("reshape_7_cast_fp16")];
            tensor<fp16, [1, 28, 28, 128]> x_33_cast_fp16 = add(x = x_23_cast_fp16, y = reshape_7_cast_fp16)[name = tensor<string, []>("x_33_cast_fp16")];
            tensor<int32, [4]> var_414 = const()[name = tensor<string, []>("op_414"), val = tensor<int32, [4]>([0, 3, 1, 2])];
            tensor<string, []> input_87_pad_type_0 = const()[name = tensor<string, []>("input_87_pad_type_0"), val = tensor<string, []>("custom")];
            tensor<int32, [4]> input_87_pad_0 = const()[name = tensor<string, []>("input_87_pad_0"), val = tensor<int32, [4]>([1, 1, 1, 1])];
            tensor<int32, []> input_87_groups_0 = const()[name = tensor<string, []>("input_87_groups_0"), val = tensor<int32, []>(128)];
            tensor<int32, [2]> input_87_strides_0 = const()[name = tensor<string, []>("input_87_strides_0"), val = tensor<int32, [2]>([1, 1])];
            tensor<int32, [2]> input_87_dilations_0 = const()[name = tensor<string, []>("input_87_dilations_0"), val = tensor<int32, [2]>([1, 1])];
            tensor<fp16, [128, 1, 3, 3]> const_85_to_fp16 = const()[name = tensor<string, []>("const_85_to_fp16"), val = tensor<fp16, [128, 1, 3, 3]>(BLOBFILE(path = tensor<string, []>("@model_path/weights/weight.bin"), offset = tensor<uint64, []>(806720)))];
            tensor<fp16, [128]> const_86_to_fp16 = const()[name = tensor<string, []>("const_86_to_fp16"), val = tensor<fp16, [128]>(BLOBFILE(path = tensor<string, []>("@model_path/weights/weight.bin"), offset = tensor<uint64, []>(809088)))];
            tensor<fp16, [1, 128, 28, 28]> input_85_cast_fp16 = transpose(perm = var_414, x = x_33_cast_fp16)[name = tensor<string, []>("transpose_118")];
            tensor<fp16, [1, 128, 28, 28]> x_35_cast_fp16 = conv(bias = const_86_to_fp16, dilations = input_87_dilations_0, groups = input_87_groups_0, pad = input_87_pad_0, pad_type = input_87_pad_type_0, strides = input_87_strides_0, weight = const_85_to_fp16, x = input_85_cast_fp16)[name = tensor<string, []>("x_35_cast_fp16")];
            tensor<int32, [3]> var_429 = const()[name = tensor<string, []>("op_429"), val = tensor<int32, [3]>([1, 128, 784])];
            tensor<fp16, [1, 128, 784]> var_430_cast_fp16 = reshape(shape = var_429, x = x_35_cast_fp16)[name = tensor<string, []>("op_430_cast_fp16")];
            tensor<int32, [3]> input_89_perm_0 = const()[name = tensor<string, []>("input_89_perm_0"), val = tensor<int32, [3]>([0, 2, 1])];
            tensor<int32, [1]> input_91_axes_0 = const()[name = tensor<string, []>("input_91_axes_0"), val = tensor<int32, [1]>([-1])];
            tensor<fp16, [128]> model_stages_1_blocks_1_mlp_norm_weight_to_fp16 = const()[name = tensor<string, []>("model_stages_1_blocks_1_mlp_norm_weight_to_fp16"), val = tensor<fp16, [128]>(BLOBFILE(path = tensor<string, []>("@model_path/weights/weight.bin"), offset = tensor<uint64, []>(809408)))];
            tensor<fp16, [128]> model_stages_1_blocks_1_mlp_norm_bias_to_fp16 = const()[name = tensor<string, []>("model_stages_1_blocks_1_mlp_norm_bias_to_fp16"), val = tensor<fp16, [128]>(BLOBFILE(path = tensor<string, []>("@model_path/weights/weight.bin"), offset = tensor<uint64, []>(809728)))];
            tensor<fp16, [1, 784, 128]> input_89_cast_fp16 = transpose(perm = input_89_perm_0, x = var_430_cast_fp16)[name = tensor<string, []>("transpose_117")];
            tensor<fp16, [1, 784, 128]> input_91_cast_fp16 = layer_norm(axes = input_91_axes_0, beta = model_stages_1_blocks_1_mlp_norm_bias_to_fp16, epsilon = var_62_to_fp16, gamma = model_stages_1_blocks_1_mlp_norm_weight_to_fp16, x = input_89_cast_fp16)[name = tensor<string, []>("input_91_cast_fp16")];
            tensor<fp16, [512, 128]> model_stages_1_blocks_1_mlp_fc1_weight_to_fp16 = const()[name = tensor<string, []>("model_stages_1_blocks_1_mlp_fc1_weight_to_fp16"), val = tensor<fp16, [512, 128]>(BLOBFILE(path = tensor<string, []>("@model_path/weights/weight.bin"), offset = tensor<uint64, []>(810048)))];
            tensor<fp16, [512]> model_stages_1_blocks_1_mlp_fc1_bias_to_fp16 = const()[name = tensor<string, []>("model_stages_1_blocks_1_mlp_fc1_bias_to_fp16"), val = tensor<fp16, [512]>(BLOBFILE(path = tensor<string, []>("@model_path/weights/weight.bin"), offset = tensor<uint64, []>(941184)))];
            tensor<fp16, [1, 784, 512]> linear_6_cast_fp16 = linear(bias = model_stages_1_blocks_1_mlp_fc1_bias_to_fp16, weight = model_stages_1_blocks_1_mlp_fc1_weight_to_fp16, x = input_91_cast_fp16)[name = tensor<string, []>("linear_6_cast_fp16")];
            tensor<string, []> input_95_mode_0 = const()[name = tensor<string, []>("input_95_mode_0"), val = tensor<string, []>("EXACT")];
            tensor<fp16, [1, 784, 512]> input_95_cast_fp16 = gelu(mode = input_95_mode_0, x = linear_6_cast_fp16)[name = tensor<string, []>("input_95_cast_fp16")];
            tensor<fp16, [128, 512]> model_stages_1_blocks_1_mlp_fc2_weight_to_fp16 = const()[name = tensor<string, []>("model_stages_1_blocks_1_mlp_fc2_weight_to_fp16"), val = tensor<fp16, [128, 512]>(BLOBFILE(path = tensor<string, []>("@model_path/weights/weight.bin"), offset = tensor<uint64, []>(942272)))];
            tensor<fp16, [128]> model_stages_1_blocks_1_mlp_fc2_bias_to_fp16 = const()[name = tensor<string, []>("model_stages_1_blocks_1_mlp_fc2_bias_to_fp16"), val = tensor<fp16, [128]>(BLOBFILE(path = tensor<string, []>("@model_path/weights/weight.bin"), offset = tensor<uint64, []>(1073408)))];
            tensor<fp16, [1, 784, 128]> linear_7_cast_fp16 = linear(bias = model_stages_1_blocks_1_mlp_fc2_bias_to_fp16, weight = model_stages_1_blocks_1_mlp_fc2_weight_to_fp16, x = input_95_cast_fp16)[name = tensor<string, []>("linear_7_cast_fp16")];
            tensor<fp16, [1, 784, 128]> x_37_cast_fp16 = add(x = input_89_cast_fp16, y = linear_7_cast_fp16)[name = tensor<string, []>("x_37_cast_fp16")];
            tensor<int32, [4]> var_449 = const()[name = tensor<string, []>("op_449"), val = tensor<int32, [4]>([1, 28, 28, 128])];
            tensor<fp16, [1, 28, 28, 128]> x_39_cast_fp16 = reshape(shape = var_449, x = x_37_cast_fp16)[name = tensor<string, []>("x_39_cast_fp16")];
            tensor<int32, [4]> var_451 = const()[name = tensor<string, []>("op_451"), val = tensor<int32, [4]>([0, 3, 1, 2])];
            tensor<string, []> input_103_pad_type_0 = const()[name = tensor<string, []>("input_103_pad_type_0"), val = tensor<string, []>("valid")];
            tensor<int32, [2]> input_103_strides_0 = const()[name = tensor<string, []>("input_103_strides_0"), val = tensor<int32, [2]>([1, 1])];
            tensor<int32, [4]> input_103_pad_0 = const()[name = tensor<string, []>("input_103_pad_0"), val = tensor<int32, [4]>([0, 0, 0, 0])];
            tensor<int32, [2]> input_103_dilations_0 = const()[name = tensor<string, []>("input_103_dilations_0"), val = tensor<int32, [2]>([1, 1])];
            tensor<int32, []> input_103_groups_0 = const()[name = tensor<string, []>("input_103_groups_0"), val = tensor<int32, []>(1)];
            tensor<fp16, [160, 128, 1, 1]> const_87_to_fp16 = const()[name = tensor<string, []>("const_87_to_fp16"), val = tensor<fp16, [160, 128, 1, 1]>(BLOBFILE(path = tensor<string, []>("@model_path/weights/weight.bin"), offset = tensor<uint64, []>(1073728)))];
            tensor<fp16, [160]> const_88_to_fp16 = const()[name = tensor<string, []>("const_88_to_fp16"), val = tensor<fp16, [160]>(BLOBFILE(path = tensor<string, []>("@model_path/weights/weight.bin"), offset = tensor<uint64, []>(1114752)))];
            tensor<fp16, [1, 128, 28, 28]> input_101_cast_fp16 = transpose(perm = var_451, x = x_39_cast_fp16)[name = tensor<string, []>("transpose_116")];
            tensor<fp16, [1, 160, 28, 28]> input_105_cast_fp16 = conv(bias = const_88_to_fp16, dilations = input_103_dilations_0, groups = input_103_groups_0, pad = input_103_pad_0, pad_type = input_103_pad_type_0, strides = input_103_strides_0, weight = const_87_to_fp16, x = input_101_cast_fp16)[name = tensor<string, []>("input_105_cast_fp16")];
            tensor<string, []> input_107_mode_0 = const()[name = tensor<string, []>("input_107_mode_0"), val = tensor<string, []>("EXACT")];
            tensor<fp16, [1, 160, 28, 28]> input_107_cast_fp16 = gelu(mode = input_107_mode_0, x = input_105_cast_fp16)[name = tensor<string, []>("input_107_cast_fp16")];
            tensor<string, []> input_109_pad_type_0 = const()[name = tensor<string, []>("input_109_pad_type_0"), val = tensor<string, []>("custom")];
            tensor<int32, [4]> input_109_pad_0 = const()[name = tensor<string, []>("input_109_pad_0"), val = tensor<int32, [4]>([1, 1, 1, 1])];
            tensor<int32, [2]> input_109_strides_0 = const()[name = tensor<string, []>("input_109_strides_0"), val = tensor<int32, [2]>([2, 2])];
            tensor<int32, []> input_109_groups_0 = const()[name = tensor<string, []>("input_109_groups_0"), val = tensor<int32, []>(160)];
            tensor<int32, [2]> input_109_dilations_0 = const()[name = tensor<string, []>("input_109_dilations_0"), val = tensor<int32, [2]>([1, 1])];
            tensor<fp16, [160, 1, 3, 3]> const_89_to_fp16 = const()[name = tensor<string, []>("const_89_to_fp16"), val = tensor<fp16, [160, 1, 3, 3]>(BLOBFILE(path = tensor<string, []>("@model_path/weights/weight.bin"), offset = tensor<uint64, []>(1115136)))];
            tensor<fp16, [160]> const_90_to_fp16 = const()[name = tensor<string, []>("const_90_to_fp16"), val = tensor<fp16, [160]>(BLOBFILE(path = tensor<string, []>("@model_path/weights/weight.bin"), offset = tensor<uint64, []>(1118080)))];
            tensor<fp16, [1, 160, 14, 14]> input_111_cast_fp16 = conv(bias = const_90_to_fp16, dilations = input_109_dilations_0, groups = input_109_groups_0, pad = input_109_pad_0, pad_type = input_109_pad_type_0, strides = input_109_strides_0, weight = const_89_to_fp16, x = input_107_cast_fp16)[name = tensor<string, []>("input_111_cast_fp16")];
            tensor<string, []> input_113_mode_0 = const()[name = tensor<string, []>("input_113_mode_0"), val = tensor<string, []>("EXACT")];
            tensor<fp16, [1, 160, 14, 14]> input_113_cast_fp16 = gelu(mode = input_113_mode_0, x = input_111_cast_fp16)[name = tensor<string, []>("input_113_cast_fp16")];
            tensor<string, []> input_115_pad_type_0 = const()[name = tensor<string, []>("input_115_pad_type_0"), val = tensor<string, []>("valid")];
            tensor<int32, [2]> input_115_strides_0 = const()[name = tensor<string, []>("input_115_strides_0"), val = tensor<int32, [2]>([1, 1])];
            tensor<int32, [4]> input_115_pad_0 = const()[name = tensor<string, []>("input_115_pad_0"), val = tensor<int32, [4]>([0, 0, 0, 0])];
            tensor<int32, [2]> input_115_dilations_0 = const()[name = tensor<string, []>("input_115_dilations_0"), val = tensor<int32, [2]>([1, 1])];
            tensor<int32, []> input_115_groups_0 = const()[name = tensor<string, []>("input_115_groups_0"), val = tensor<int32, []>(1)];
            tensor<fp16, [160, 160, 1, 1]> const_91_to_fp16 = const()[name = tensor<string, []>("const_91_to_fp16"), val = tensor<fp16, [160, 160, 1, 1]>(BLOBFILE(path = tensor<string, []>("@model_path/weights/weight.bin"), offset = tensor<uint64, []>(1118464)))];
            tensor<fp16, [160]> const_92_to_fp16 = const()[name = tensor<string, []>("const_92_to_fp16"), val = tensor<fp16, [160]>(BLOBFILE(path = tensor<string, []>("@model_path/weights/weight.bin"), offset = tensor<uint64, []>(1169728)))];
            tensor<fp16, [1, 160, 14, 14]> x_41_cast_fp16 = conv(bias = const_92_to_fp16, dilations = input_115_dilations_0, groups = input_115_groups_0, pad = input_115_pad_0, pad_type = input_115_pad_type_0, strides = input_115_strides_0, weight = const_91_to_fp16, x = input_113_cast_fp16)[name = tensor<string, []>("x_41_cast_fp16")];
            tensor<int32, [4]> var_499 = const()[name = tensor<string, []>("op_499"), val = tensor<int32, [4]>([0, 2, 3, 1])];
            tensor<int32, [3]> var_519 = const()[name = tensor<string, []>("op_519"), val = tensor<int32, [3]>([1, 196, 160])];
            tensor<fp16, [1, 14, 14, 160]> x_43_cast_fp16 = transpose(perm = var_499, x = x_41_cast_fp16)[name = tensor<string, []>("transpose_115")];
            tensor<fp16, [1, 196, 160]> x_45_cast_fp16 = reshape(shape = var_519, x = x_43_cast_fp16)[name = tensor<string, []>("x_45_cast_fp16")];
            tensor<int32, [1]> input_117_axes_0 = const()[name = tensor<string, []>("input_117_axes_0"), val = tensor<int32, [1]>([-1])];
            tensor<fp16, [160]> model_stages_2_blocks_0_attn_norm_weight_to_fp16 = const()[name = tensor<string, []>("model_stages_2_blocks_0_attn_norm_weight_to_fp16"), val = tensor<fp16, [160]>(BLOBFILE(path = tensor<string, []>("@model_path/weights/weight.bin"), offset = tensor<uint64, []>(1170112)))];
            tensor<fp16, [160]> model_stages_2_blocks_0_attn_norm_bias_to_fp16 = const()[name = tensor<string, []>("model_stages_2_blocks_0_attn_norm_bias_to_fp16"), val = tensor<fp16, [160]>(BLOBFILE(path = tensor<string, []>("@model_path/weights/weight.bin"), offset = tensor<uint64, []>(1170496)))];
            tensor<fp16, [1, 196, 160]> input_117_cast_fp16 = layer_norm(axes = input_117_axes_0, beta = model_stages_2_blocks_0_attn_norm_bias_to_fp16, epsilon = var_62_to_fp16, gamma = model_stages_2_blocks_0_attn_norm_weight_to_fp16, x = x_45_cast_fp16)[name = tensor<string, []>("input_117_cast_fp16")];
            tensor<fp16, [480, 160]> model_stages_2_blocks_0_attn_qkv_weight_to_fp16 = const()[name = tensor<string, []>("model_stages_2_blocks_0_attn_qkv_weight_to_fp16"), val = tensor<fp16, [480, 160]>(BLOBFILE(path = tensor<string, []>("@model_path/weights/weight.bin"), offset = tensor<uint64, []>(1170880)))];
            tensor<fp16, [480]> model_stages_2_blocks_0_attn_qkv_bias_to_fp16 = const()[name = tensor<string, []>("model_stages_2_blocks_0_attn_qkv_bias_to_fp16"), val = tensor<fp16, [480]>(BLOBFILE(path = tensor<string, []>("@model_path/weights/weight.bin"), offset = tensor<uint64, []>(1324544)))];
            tensor<fp16, [1, 196, 480]> linear_8_cast_fp16 = linear(bias = model_stages_2_blocks_0_attn_qkv_bias_to_fp16, weight = model_stages_2_blocks_0_attn_qkv_weight_to_fp16, x = input_117_cast_fp16)[name = tensor<string, []>("linear_8_cast_fp16")];
            tensor<int32, [4]> var_538 = const()[name = tensor<string, []>("op_538"), val = tensor<int32, [4]>([1, 196, 5, -1])];
            tensor<fp16, [1, 196, 5, 96]> var_539_cast_fp16 = reshape(shape = var_538, x = linear_8_cast_fp16)[name = tensor<string, []>("op_539_cast_fp16")];
            tensor<int32, [3]> var_540 = const()[name = tensor<string, []>("op_540"), val = tensor<int32, [3]>([32, 32, 32])];
            tensor<int32, []> var_541_axis_0 = const()[name = tensor<string, []>("op_541_axis_0"), val = tensor<int32, []>(3)];
            tensor<fp16, [1, 196, 5, 32]> var_541_cast_fp16_0, tensor<fp16, [1, 196, 5, 32]> var_541_cast_fp16_1, tensor<fp16, [1, 196, 5, 32]> var_541_cast_fp16_2 = split(axis = var_541_axis_0, split_sizes = var_540, x = var_539_cast_fp16)[name = tensor<string, []>("op_541_cast_fp16")];
            tensor<int32, [4]> var_549 = const()[name = tensor<string, []>("op_549"), val = tensor<int32, [4]>([0, 2, 1, 3])];
            tensor<fp16, []> mul_2_y_0_to_fp16 = const()[name = tensor<string, []>("mul_2_y_0_to_fp16"), val = tensor<fp16, []>(0x1.6ap-3)];
            tensor<fp16, [1, 196, 5, 32]> mul_2_cast_fp16 = mul(x = var_541_cast_fp16_0, y = mul_2_y_0_to_fp16)[name = tensor<string, []>("mul_2_cast_fp16")];
            tensor<bool, []> matmul_2_transpose_y_0 = const()[name = tensor<string, []>("matmul_2_transpose_y_0"), val = tensor<bool, []>(true)];
            tensor<bool, []> matmul_2_transpose_x_0 = const()[name = tensor<string, []>("matmul_2_transpose_x_0"), val = tensor<bool, []>(false)];
            tensor<int32, [4]> transpose_48_perm_0 = const()[name = tensor<string, []>("transpose_48_perm_0"), val = tensor<int32, [4]>([0, 2, -3, -1])];
            tensor<int32, [4]> transpose_49_perm_0 = const()[name = tensor<string, []>("transpose_49_perm_0"), val = tensor<int32, [4]>([0, 2, -3, -1])];
            tensor<fp16, [1, 5, 196, 32]> transpose_49 = transpose(perm = transpose_49_perm_0, x = var_541_cast_fp16_1)[name = tensor<string, []>("transpose_112")];
            tensor<fp16, [1, 5, 196, 32]> transpose_48 = transpose(perm = transpose_48_perm_0, x = mul_2_cast_fp16)[name = tensor<string, []>("transpose_113")];
            tensor<fp16, [1, 5, 196, 196]> matmul_2_cast_fp16 = matmul(transpose_x = matmul_2_transpose_x_0, transpose_y = matmul_2_transpose_y_0, x = transpose_48, y = transpose_49)[name = tensor<string, []>("matmul_2_cast_fp16")];
            tensor<fp16, [5, 196, 196]> attn_bias_5_to_fp16 = const()[name = tensor<string, []>("attn_bias_5_to_fp16"), val = tensor<fp16, [5, 196, 196]>(BLOBFILE(path = tensor<string, []>("@model_path/weights/weight.bin"), offset = tensor<uint64, []>(1325568)))];
            tensor<fp16, [1, 5, 196, 196]> add_2_cast_fp16 = add(x = matmul_2_cast_fp16, y = attn_bias_5_to_fp16)[name = tensor<string, []>("add_2_cast_fp16")];
            tensor<int32, []> softmax_2_axis_0 = const()[name = tensor<string, []>("softmax_2_axis_0"), val = tensor<int32, []>(-1)];
            tensor<fp16, [1, 5, 196, 196]> softmax_2_cast_fp16 = softmax(axis = softmax_2_axis_0, x = add_2_cast_fp16)[name = tensor<string, []>("softmax_2_cast_fp16")];
            tensor<bool, []> x_47_transpose_x_0 = const()[name = tensor<string, []>("x_47_transpose_x_0"), val = tensor<bool, []>(false)];
            tensor<bool, []> x_47_transpose_y_0 = const()[name = tensor<string, []>("x_47_transpose_y_0"), val = tensor<bool, []>(false)];
            tensor<fp16, [1, 5, 196, 32]> v_11_cast_fp16 = transpose(perm = var_549, x = var_541_cast_fp16_2)[name = tensor<string, []>("transpose_114")];
            tensor<fp16, [1, 5, 196, 32]> x_47_cast_fp16 = matmul(transpose_x = x_47_transpose_x_0, transpose_y = x_47_transpose_y_0, x = softmax_2_cast_fp16, y = v_11_cast_fp16)[name = tensor<string, []>("x_47_cast_fp16")];
            tensor<int32, [4]> var_552_perm_0 = const()[name = tensor<string, []>("op_552_perm_0"), val = tensor<int32, [4]>([0, 2, 1, 3])];
            tensor<int32, [3]> var_553 = const()[name = tensor<string, []>("op_553"), val = tensor<int32, [3]>([1, 196, 160])];
            tensor<fp16, [1, 196, 5, 32]> var_552_cast_fp16 = transpose(perm = var_552_perm_0, x = x_47_cast_fp16)[name = tensor<string, []>("transpose_111")];
            tensor<fp16, [1, 196, 160]> input_119_cast_fp16 = reshape(shape = var_553, x = var_552_cast_fp16)[name = tensor<string, []>("input_119_cast_fp16")];
            tensor<fp16, [160, 160]> model_stages_2_blocks_0_attn_proj_weight_to_fp16 = const()[name = tensor<string, []>("model_stages_2_blocks_0_attn_proj_weight_to_fp16"), val = tensor<fp16, [160, 160]>(BLOBFILE(path = tensor<string, []>("@model_path/weights/weight.bin"), offset = tensor<uint64, []>(1709824)))];
            tensor<fp16, [160]> model_stages_2_blocks_0_attn_proj_bias_to_fp16 = const()[name = tensor<string, []>("model_stages_2_blocks_0_attn_proj_bias_to_fp16"), val = tensor<fp16, [160]>(BLOBFILE(path = tensor<string, []>("@model_path/weights/weight.bin"), offset = tensor<uint64, []>(1761088)))];
            tensor<fp16, [1, 196, 160]> linear_9_cast_fp16 = linear(bias = model_stages_2_blocks_0_attn_proj_bias_to_fp16, weight = model_stages_2_blocks_0_attn_proj_weight_to_fp16, x = input_119_cast_fp16)[name = tensor<string, []>("linear_9_cast_fp16")];
            tensor<int32, [4]> var_558 = const()[name = tensor<string, []>("op_558"), val = tensor<int32, [4]>([1, 14, 14, 160])];
            tensor<fp16, [1, 14, 14, 160]> x_51_cast_fp16 = reshape(shape = var_558, x = linear_9_cast_fp16)[name = tensor<string, []>("x_51_cast_fp16")];
            tensor<fp16, [1, 14, 14, 160]> x_53_cast_fp16 = add(x = x_43_cast_fp16, y = x_51_cast_fp16)[name = tensor<string, []>("x_53_cast_fp16")];
            tensor<int32, [4]> var_561 = const()[name = tensor<string, []>("op_561"), val = tensor<int32, [4]>([0, 3, 1, 2])];
            tensor<string, []> input_123_pad_type_0 = const()[name = tensor<string, []>("input_123_pad_type_0"), val = tensor<string, []>("custom")];
            tensor<int32, [4]> input_123_pad_0 = const()[name = tensor<string, []>("input_123_pad_0"), val = tensor<int32, [4]>([1, 1, 1, 1])];
            tensor<int32, []> input_123_groups_0 = const()[name = tensor<string, []>("input_123_groups_0"), val = tensor<int32, []>(160)];
            tensor<int32, [2]> input_123_strides_0 = const()[name = tensor<string, []>("input_123_strides_0"), val = tensor<int32, [2]>([1, 1])];
            tensor<int32, [2]> input_123_dilations_0 = const()[name = tensor<string, []>("input_123_dilations_0"), val = tensor<int32, [2]>([1, 1])];
            tensor<fp16, [160, 1, 3, 3]> const_93_to_fp16 = const()[name = tensor<string, []>("const_93_to_fp16"), val = tensor<fp16, [160, 1, 3, 3]>(BLOBFILE(path = tensor<string, []>("@model_path/weights/weight.bin"), offset = tensor<uint64, []>(1761472)))];
            tensor<fp16, [160]> const_94_to_fp16 = const()[name = tensor<string, []>("const_94_to_fp16"), val = tensor<fp16, [160]>(BLOBFILE(path = tensor<string, []>("@model_path/weights/weight.bin"), offset = tensor<uint64, []>(1764416)))];
            tensor<fp16, [1, 160, 14, 14]> input_121_cast_fp16 = transpose(perm = var_561, x = x_53_cast_fp16)[name = tensor<string, []>("transpose_110")];
            tensor<fp16, [1, 160, 14, 14]> x_55_cast_fp16 = conv(bias = const_94_to_fp16, dilations = input_123_dilations_0, groups = input_123_groups_0, pad = input_123_pad_0, pad_type = input_123_pad_type_0, strides = input_123_strides_0, weight = const_93_to_fp16, x = input_121_cast_fp16)[name = tensor<string, []>("x_55_cast_fp16")];
            tensor<int32, [3]> var_576 = const()[name = tensor<string, []>("op_576"), val = tensor<int32, [3]>([1, 160, 196])];
            tensor<fp16, [1, 160, 196]> var_577_cast_fp16 = reshape(shape = var_576, x = x_55_cast_fp16)[name = tensor<string, []>("op_577_cast_fp16")];
            tensor<int32, [3]> input_125_perm_0 = const()[name = tensor<string, []>("input_125_perm_0"), val = tensor<int32, [3]>([0, 2, 1])];
            tensor<int32, [1]> input_127_axes_0 = const()[name = tensor<string, []>("input_127_axes_0"), val = tensor<int32, [1]>([-1])];
            tensor<fp16, [160]> model_stages_2_blocks_0_mlp_norm_weight_to_fp16 = const()[name = tensor<string, []>("model_stages_2_blocks_0_mlp_norm_weight_to_fp16"), val = tensor<fp16, [160]>(BLOBFILE(path = tensor<string, []>("@model_path/weights/weight.bin"), offset = tensor<uint64, []>(1764800)))];
            tensor<fp16, [160]> model_stages_2_blocks_0_mlp_norm_bias_to_fp16 = const()[name = tensor<string, []>("model_stages_2_blocks_0_mlp_norm_bias_to_fp16"), val = tensor<fp16, [160]>(BLOBFILE(path = tensor<string, []>("@model_path/weights/weight.bin"), offset = tensor<uint64, []>(1765184)))];
            tensor<fp16, [1, 196, 160]> input_125_cast_fp16 = transpose(perm = input_125_perm_0, x = var_577_cast_fp16)[name = tensor<string, []>("transpose_109")];
            tensor<fp16, [1, 196, 160]> input_127_cast_fp16 = layer_norm(axes = input_127_axes_0, beta = model_stages_2_blocks_0_mlp_norm_bias_to_fp16, epsilon = var_62_to_fp16, gamma = model_stages_2_blocks_0_mlp_norm_weight_to_fp16, x = input_125_cast_fp16)[name = tensor<string, []>("input_127_cast_fp16")];
            tensor<fp16, [640, 160]> model_stages_2_blocks_0_mlp_fc1_weight_to_fp16 = const()[name = tensor<string, []>("model_stages_2_blocks_0_mlp_fc1_weight_to_fp16"), val = tensor<fp16, [640, 160]>(BLOBFILE(path = tensor<string, []>("@model_path/weights/weight.bin"), offset = tensor<uint64, []>(1765568)))];
            tensor<fp16, [640]> model_stages_2_blocks_0_mlp_fc1_bias_to_fp16 = const()[name = tensor<string, []>("model_stages_2_blocks_0_mlp_fc1_bias_to_fp16"), val = tensor<fp16, [640]>(BLOBFILE(path = tensor<string, []>("@model_path/weights/weight.bin"), offset = tensor<uint64, []>(1970432)))];
            tensor<fp16, [1, 196, 640]> linear_10_cast_fp16 = linear(bias = model_stages_2_blocks_0_mlp_fc1_bias_to_fp16, weight = model_stages_2_blocks_0_mlp_fc1_weight_to_fp16, x = input_127_cast_fp16)[name = tensor<string, []>("linear_10_cast_fp16")];
            tensor<string, []> input_131_mode_0 = const()[name = tensor<string, []>("input_131_mode_0"), val = tensor<string, []>("EXACT")];
            tensor<fp16, [1, 196, 640]> input_131_cast_fp16 = gelu(mode = input_131_mode_0, x = linear_10_cast_fp16)[name = tensor<string, []>("input_131_cast_fp16")];
            tensor<fp16, [160, 640]> model_stages_2_blocks_0_mlp_fc2_weight_to_fp16 = const()[name = tensor<string, []>("model_stages_2_blocks_0_mlp_fc2_weight_to_fp16"), val = tensor<fp16, [160, 640]>(BLOBFILE(path = tensor<string, []>("@model_path/weights/weight.bin"), offset = tensor<uint64, []>(1971776)))];
            tensor<fp16, [160]> model_stages_2_blocks_0_mlp_fc2_bias_to_fp16 = const()[name = tensor<string, []>("model_stages_2_blocks_0_mlp_fc2_bias_to_fp16"), val = tensor<fp16, [160]>(BLOBFILE(path = tensor<string, []>("@model_path/weights/weight.bin"), offset = tensor<uint64, []>(2176640)))];
            tensor<fp16, [1, 196, 160]> linear_11_cast_fp16 = linear(bias = model_stages_2_blocks_0_mlp_fc2_bias_to_fp16, weight = model_stages_2_blocks_0_mlp_fc2_weight_to_fp16, x = input_131_cast_fp16)[name = tensor<string, []>("linear_11_cast_fp16")];
            tensor<fp16, [1, 196, 160]> x_57_cast_fp16 = add(x = input_125_cast_fp16, y = linear_11_cast_fp16)[name = tensor<string, []>("x_57_cast_fp16")];
            tensor<int32, [4]> var_596 = const()[name = tensor<string, []>("op_596"), val = tensor<int32, [4]>([1, 14, 14, 160])];
            tensor<fp16, [1, 14, 14, 160]> x_59_cast_fp16 = reshape(shape = var_596, x = x_57_cast_fp16)[name = tensor<string, []>("x_59_cast_fp16")];
            tensor<int32, [3]> var_610 = const()[name = tensor<string, []>("op_610"), val = tensor<int32, [3]>([1, 196, 160])];
            tensor<fp16, [1, 196, 160]> x_61_cast_fp16 = reshape(shape = var_610, x = x_59_cast_fp16)[name = tensor<string, []>("x_61_cast_fp16")];
            tensor<int32, [1]> input_137_axes_0 = const()[name = tensor<string, []>("input_137_axes_0"), val = tensor<int32, [1]>([-1])];
            tensor<fp16, [160]> model_stages_2_blocks_1_attn_norm_weight_to_fp16 = const()[name = tensor<string, []>("model_stages_2_blocks_1_attn_norm_weight_to_fp16"), val = tensor<fp16, [160]>(BLOBFILE(path = tensor<string, []>("@model_path/weights/weight.bin"), offset = tensor<uint64, []>(2177024)))];
            tensor<fp16, [160]> model_stages_2_blocks_1_attn_norm_bias_to_fp16 = const()[name = tensor<string, []>("model_stages_2_blocks_1_attn_norm_bias_to_fp16"), val = tensor<fp16, [160]>(BLOBFILE(path = tensor<string, []>("@model_path/weights/weight.bin"), offset = tensor<uint64, []>(2177408)))];
            tensor<fp16, [1, 196, 160]> input_137_cast_fp16 = layer_norm(axes = input_137_axes_0, beta = model_stages_2_blocks_1_attn_norm_bias_to_fp16, epsilon = var_62_to_fp16, gamma = model_stages_2_blocks_1_attn_norm_weight_to_fp16, x = x_61_cast_fp16)[name = tensor<string, []>("input_137_cast_fp16")];
            tensor<fp16, [480, 160]> model_stages_2_blocks_1_attn_qkv_weight_to_fp16 = const()[name = tensor<string, []>("model_stages_2_blocks_1_attn_qkv_weight_to_fp16"), val = tensor<fp16, [480, 160]>(BLOBFILE(path = tensor<string, []>("@model_path/weights/weight.bin"), offset = tensor<uint64, []>(2177792)))];
            tensor<fp16, [480]> model_stages_2_blocks_1_attn_qkv_bias_to_fp16 = const()[name = tensor<string, []>("model_stages_2_blocks_1_attn_qkv_bias_to_fp16"), val = tensor<fp16, [480]>(BLOBFILE(path = tensor<string, []>("@model_path/weights/weight.bin"), offset = tensor<uint64, []>(2331456)))];
            tensor<fp16, [1, 196, 480]> linear_12_cast_fp16 = linear(bias = model_stages_2_blocks_1_attn_qkv_bias_to_fp16, weight = model_stages_2_blocks_1_attn_qkv_weight_to_fp16, x = input_137_cast_fp16)[name = tensor<string, []>("linear_12_cast_fp16")];
            tensor<int32, [4]> var_629 = const()[name = tensor<string, []>("op_629"), val = tensor<int32, [4]>([1, 196, 5, -1])];
            tensor<fp16, [1, 196, 5, 96]> var_630_cast_fp16 = reshape(shape = var_629, x = linear_12_cast_fp16)[name = tensor<string, []>("op_630_cast_fp16")];
            tensor<int32, [3]> var_631 = const()[name = tensor<string, []>("op_631"), val = tensor<int32, [3]>([32, 32, 32])];
            tensor<int32, []> var_632_axis_0 = const()[name = tensor<string, []>("op_632_axis_0"), val = tensor<int32, []>(3)];
            tensor<fp16, [1, 196, 5, 32]> var_632_cast_fp16_0, tensor<fp16, [1, 196, 5, 32]> var_632_cast_fp16_1, tensor<fp16, [1, 196, 5, 32]> var_632_cast_fp16_2 = split(axis = var_632_axis_0, split_sizes = var_631, x = var_630_cast_fp16)[name = tensor<string, []>("op_632_cast_fp16")];
            tensor<int32, [4]> var_640 = const()[name = tensor<string, []>("op_640"), val = tensor<int32, [4]>([0, 2, 1, 3])];
            tensor<fp16, []> mul_3_y_0_to_fp16 = const()[name = tensor<string, []>("mul_3_y_0_to_fp16"), val = tensor<fp16, []>(0x1.6ap-3)];
            tensor<fp16, [1, 196, 5, 32]> mul_3_cast_fp16 = mul(x = var_632_cast_fp16_0, y = mul_3_y_0_to_fp16)[name = tensor<string, []>("mul_3_cast_fp16")];
            tensor<bool, []> matmul_3_transpose_y_0 = const()[name = tensor<string, []>("matmul_3_transpose_y_0"), val = tensor<bool, []>(true)];
            tensor<bool, []> matmul_3_transpose_x_0 = const()[name = tensor<string, []>("matmul_3_transpose_x_0"), val = tensor<bool, []>(false)];
            tensor<int32, [4]> transpose_50_perm_0 = const()[name = tensor<string, []>("transpose_50_perm_0"), val = tensor<int32, [4]>([0, 2, -3, -1])];
            tensor<int32, [4]> transpose_51_perm_0 = const()[name = tensor<string, []>("transpose_51_perm_0"), val = tensor<int32, [4]>([0, 2, -3, -1])];
            tensor<fp16, [1, 5, 196, 32]> transpose_51 = transpose(perm = transpose_51_perm_0, x = var_632_cast_fp16_1)[name = tensor<string, []>("transpose_106")];
            tensor<fp16, [1, 5, 196, 32]> transpose_50 = transpose(perm = transpose_50_perm_0, x = mul_3_cast_fp16)[name = tensor<string, []>("transpose_107")];
            tensor<fp16, [1, 5, 196, 196]> matmul_3_cast_fp16 = matmul(transpose_x = matmul_3_transpose_x_0, transpose_y = matmul_3_transpose_y_0, x = transpose_50, y = transpose_51)[name = tensor<string, []>("matmul_3_cast_fp16")];
            tensor<fp16, [5, 196, 196]> attn_bias_7_to_fp16 = const()[name = tensor<string, []>("attn_bias_7_to_fp16"), val = tensor<fp16, [5, 196, 196]>(BLOBFILE(path = tensor<string, []>("@model_path/weights/weight.bin"), offset = tensor<uint64, []>(2332480)))];
            tensor<fp16, [1, 5, 196, 196]> add_3_cast_fp16 = add(x = matmul_3_cast_fp16, y = attn_bias_7_to_fp16)[name = tensor<string, []>("add_3_cast_fp16")];
            tensor<int32, []> softmax_3_axis_0 = const()[name = tensor<string, []>("softmax_3_axis_0"), val = tensor<int32, []>(-1)];
            tensor<fp16, [1, 5, 196, 196]> softmax_3_cast_fp16 = softmax(axis = softmax_3_axis_0, x = add_3_cast_fp16)[name = tensor<string, []>("softmax_3_cast_fp16")];
            tensor<bool, []> x_63_transpose_x_0 = const()[name = tensor<string, []>("x_63_transpose_x_0"), val = tensor<bool, []>(false)];
            tensor<bool, []> x_63_transpose_y_0 = const()[name = tensor<string, []>("x_63_transpose_y_0"), val = tensor<bool, []>(false)];
            tensor<fp16, [1, 5, 196, 32]> v_15_cast_fp16 = transpose(perm = var_640, x = var_632_cast_fp16_2)[name = tensor<string, []>("transpose_108")];
            tensor<fp16, [1, 5, 196, 32]> x_63_cast_fp16 = matmul(transpose_x = x_63_transpose_x_0, transpose_y = x_63_transpose_y_0, x = softmax_3_cast_fp16, y = v_15_cast_fp16)[name = tensor<string, []>("x_63_cast_fp16")];
            tensor<int32, [4]> var_643_perm_0 = const()[name = tensor<string, []>("op_643_perm_0"), val = tensor<int32, [4]>([0, 2, 1, 3])];
            tensor<int32, [3]> var_644 = const()[name = tensor<string, []>("op_644"), val = tensor<int32, [3]>([1, 196, 160])];
            tensor<fp16, [1, 196, 5, 32]> var_643_cast_fp16 = transpose(perm = var_643_perm_0, x = x_63_cast_fp16)[name = tensor<string, []>("transpose_105")];
            tensor<fp16, [1, 196, 160]> input_139_cast_fp16 = reshape(shape = var_644, x = var_643_cast_fp16)[name = tensor<string, []>("input_139_cast_fp16")];
            tensor<fp16, [160, 160]> model_stages_2_blocks_1_attn_proj_weight_to_fp16 = const()[name = tensor<string, []>("model_stages_2_blocks_1_attn_proj_weight_to_fp16"), val = tensor<fp16, [160, 160]>(BLOBFILE(path = tensor<string, []>("@model_path/weights/weight.bin"), offset = tensor<uint64, []>(2716736)))];
            tensor<fp16, [160]> model_stages_2_blocks_1_attn_proj_bias_to_fp16 = const()[name = tensor<string, []>("model_stages_2_blocks_1_attn_proj_bias_to_fp16"), val = tensor<fp16, [160]>(BLOBFILE(path = tensor<string, []>("@model_path/weights/weight.bin"), offset = tensor<uint64, []>(2768000)))];
            tensor<fp16, [1, 196, 160]> linear_13_cast_fp16 = linear(bias = model_stages_2_blocks_1_attn_proj_bias_to_fp16, weight = model_stages_2_blocks_1_attn_proj_weight_to_fp16, x = input_139_cast_fp16)[name = tensor<string, []>("linear_13_cast_fp16")];
            tensor<int32, [4]> var_649 = const()[name = tensor<string, []>("op_649"), val = tensor<int32, [4]>([1, 14, 14, 160])];
            tensor<fp16, [1, 14, 14, 160]> x_67_cast_fp16 = reshape(shape = var_649, x = linear_13_cast_fp16)[name = tensor<string, []>("x_67_cast_fp16")];
            tensor<fp16, [1, 14, 14, 160]> x_69_cast_fp16 = add(x = x_59_cast_fp16, y = x_67_cast_fp16)[name = tensor<string, []>("x_69_cast_fp16")];
            tensor<int32, [4]> var_652 = const()[name = tensor<string, []>("op_652"), val = tensor<int32, [4]>([0, 3, 1, 2])];
            tensor<string, []> input_143_pad_type_0 = const()[name = tensor<string, []>("input_143_pad_type_0"), val = tensor<string, []>("custom")];
            tensor<int32, [4]> input_143_pad_0 = const()[name = tensor<string, []>("input_143_pad_0"), val = tensor<int32, [4]>([1, 1, 1, 1])];
            tensor<int32, []> input_143_groups_0 = const()[name = tensor<string, []>("input_143_groups_0"), val = tensor<int32, []>(160)];
            tensor<int32, [2]> input_143_strides_0 = const()[name = tensor<string, []>("input_143_strides_0"), val = tensor<int32, [2]>([1, 1])];
            tensor<int32, [2]> input_143_dilations_0 = const()[name = tensor<string, []>("input_143_dilations_0"), val = tensor<int32, [2]>([1, 1])];
            tensor<fp16, [160, 1, 3, 3]> const_95_to_fp16 = const()[name = tensor<string, []>("const_95_to_fp16"), val = tensor<fp16, [160, 1, 3, 3]>(BLOBFILE(path = tensor<string, []>("@model_path/weights/weight.bin"), offset = tensor<uint64, []>(2768384)))];
            tensor<fp16, [160]> const_96_to_fp16 = const()[name = tensor<string, []>("const_96_to_fp16"), val = tensor<fp16, [160]>(BLOBFILE(path = tensor<string, []>("@model_path/weights/weight.bin"), offset = tensor<uint64, []>(2771328)))];
            tensor<fp16, [1, 160, 14, 14]> input_141_cast_fp16 = transpose(perm = var_652, x = x_69_cast_fp16)[name = tensor<string, []>("transpose_104")];
            tensor<fp16, [1, 160, 14, 14]> x_71_cast_fp16 = conv(bias = const_96_to_fp16, dilations = input_143_dilations_0, groups = input_143_groups_0, pad = input_143_pad_0, pad_type = input_143_pad_type_0, strides = input_143_strides_0, weight = const_95_to_fp16, x = input_141_cast_fp16)[name = tensor<string, []>("x_71_cast_fp16")];
            tensor<int32, [3]> var_667 = const()[name = tensor<string, []>("op_667"), val = tensor<int32, [3]>([1, 160, 196])];
            tensor<fp16, [1, 160, 196]> var_668_cast_fp16 = reshape(shape = var_667, x = x_71_cast_fp16)[name = tensor<string, []>("op_668_cast_fp16")];
            tensor<int32, [3]> input_145_perm_0 = const()[name = tensor<string, []>("input_145_perm_0"), val = tensor<int32, [3]>([0, 2, 1])];
            tensor<int32, [1]> input_147_axes_0 = const()[name = tensor<string, []>("input_147_axes_0"), val = tensor<int32, [1]>([-1])];
            tensor<fp16, [160]> model_stages_2_blocks_1_mlp_norm_weight_to_fp16 = const()[name = tensor<string, []>("model_stages_2_blocks_1_mlp_norm_weight_to_fp16"), val = tensor<fp16, [160]>(BLOBFILE(path = tensor<string, []>("@model_path/weights/weight.bin"), offset = tensor<uint64, []>(2771712)))];
            tensor<fp16, [160]> model_stages_2_blocks_1_mlp_norm_bias_to_fp16 = const()[name = tensor<string, []>("model_stages_2_blocks_1_mlp_norm_bias_to_fp16"), val = tensor<fp16, [160]>(BLOBFILE(path = tensor<string, []>("@model_path/weights/weight.bin"), offset = tensor<uint64, []>(2772096)))];
            tensor<fp16, [1, 196, 160]> input_145_cast_fp16 = transpose(perm = input_145_perm_0, x = var_668_cast_fp16)[name = tensor<string, []>("transpose_103")];
            tensor<fp16, [1, 196, 160]> input_147_cast_fp16 = layer_norm(axes = input_147_axes_0, beta = model_stages_2_blocks_1_mlp_norm_bias_to_fp16, epsilon = var_62_to_fp16, gamma = model_stages_2_blocks_1_mlp_norm_weight_to_fp16, x = input_145_cast_fp16)[name = tensor<string, []>("input_147_cast_fp16")];
            tensor<fp16, [640, 160]> model_stages_2_blocks_1_mlp_fc1_weight_to_fp16 = const()[name = tensor<string, []>("model_stages_2_blocks_1_mlp_fc1_weight_to_fp16"), val = tensor<fp16, [640, 160]>(BLOBFILE(path = tensor<string, []>("@model_path/weights/weight.bin"), offset = tensor<uint64, []>(2772480)))];
            tensor<fp16, [640]> model_stages_2_blocks_1_mlp_fc1_bias_to_fp16 = const()[name = tensor<string, []>("model_stages_2_blocks_1_mlp_fc1_bias_to_fp16"), val = tensor<fp16, [640]>(BLOBFILE(path = tensor<string, []>("@model_path/weights/weight.bin"), offset = tensor<uint64, []>(2977344)))];
            tensor<fp16, [1, 196, 640]> linear_14_cast_fp16 = linear(bias = model_stages_2_blocks_1_mlp_fc1_bias_to_fp16, weight = model_stages_2_blocks_1_mlp_fc1_weight_to_fp16, x = input_147_cast_fp16)[name = tensor<string, []>("linear_14_cast_fp16")];
            tensor<string, []> input_151_mode_0 = const()[name = tensor<string, []>("input_151_mode_0"), val = tensor<string, []>("EXACT")];
            tensor<fp16, [1, 196, 640]> input_151_cast_fp16 = gelu(mode = input_151_mode_0, x = linear_14_cast_fp16)[name = tensor<string, []>("input_151_cast_fp16")];
            tensor<fp16, [160, 640]> model_stages_2_blocks_1_mlp_fc2_weight_to_fp16 = const()[name = tensor<string, []>("model_stages_2_blocks_1_mlp_fc2_weight_to_fp16"), val = tensor<fp16, [160, 640]>(BLOBFILE(path = tensor<string, []>("@model_path/weights/weight.bin"), offset = tensor<uint64, []>(2978688)))];
            tensor<fp16, [160]> model_stages_2_blocks_1_mlp_fc2_bias_to_fp16 = const()[name = tensor<string, []>("model_stages_2_blocks_1_mlp_fc2_bias_to_fp16"), val = tensor<fp16, [160]>(BLOBFILE(path = tensor<string, []>("@model_path/weights/weight.bin"), offset = tensor<uint64, []>(3183552)))];
            tensor<fp16, [1, 196, 160]> linear_15_cast_fp16 = linear(bias = model_stages_2_blocks_1_mlp_fc2_bias_to_fp16, weight = model_stages_2_blocks_1_mlp_fc2_weight_to_fp16, x = input_151_cast_fp16)[name = tensor<string, []>("linear_15_cast_fp16")];
            tensor<fp16, [1, 196, 160]> x_73_cast_fp16 = add(x = input_145_cast_fp16, y = linear_15_cast_fp16)[name = tensor<string, []>("x_73_cast_fp16")];
            tensor<int32, [4]> var_687 = const()[name = tensor<string, []>("op_687"), val = tensor<int32, [4]>([1, 14, 14, 160])];
            tensor<fp16, [1, 14, 14, 160]> x_75_cast_fp16 = reshape(shape = var_687, x = x_73_cast_fp16)[name = tensor<string, []>("x_75_cast_fp16")];
            tensor<int32, [3]> var_701 = const()[name = tensor<string, []>("op_701"), val = tensor<int32, [3]>([1, 196, 160])];
            tensor<fp16, [1, 196, 160]> x_77_cast_fp16 = reshape(shape = var_701, x = x_75_cast_fp16)[name = tensor<string, []>("x_77_cast_fp16")];
            tensor<int32, [1]> input_157_axes_0 = const()[name = tensor<string, []>("input_157_axes_0"), val = tensor<int32, [1]>([-1])];
            tensor<fp16, [160]> model_stages_2_blocks_2_attn_norm_weight_to_fp16 = const()[name = tensor<string, []>("model_stages_2_blocks_2_attn_norm_weight_to_fp16"), val = tensor<fp16, [160]>(BLOBFILE(path = tensor<string, []>("@model_path/weights/weight.bin"), offset = tensor<uint64, []>(3183936)))];
            tensor<fp16, [160]> model_stages_2_blocks_2_attn_norm_bias_to_fp16 = const()[name = tensor<string, []>("model_stages_2_blocks_2_attn_norm_bias_to_fp16"), val = tensor<fp16, [160]>(BLOBFILE(path = tensor<string, []>("@model_path/weights/weight.bin"), offset = tensor<uint64, []>(3184320)))];
            tensor<fp16, [1, 196, 160]> input_157_cast_fp16 = layer_norm(axes = input_157_axes_0, beta = model_stages_2_blocks_2_attn_norm_bias_to_fp16, epsilon = var_62_to_fp16, gamma = model_stages_2_blocks_2_attn_norm_weight_to_fp16, x = x_77_cast_fp16)[name = tensor<string, []>("input_157_cast_fp16")];
            tensor<fp16, [480, 160]> model_stages_2_blocks_2_attn_qkv_weight_to_fp16 = const()[name = tensor<string, []>("model_stages_2_blocks_2_attn_qkv_weight_to_fp16"), val = tensor<fp16, [480, 160]>(BLOBFILE(path = tensor<string, []>("@model_path/weights/weight.bin"), offset = tensor<uint64, []>(3184704)))];
            tensor<fp16, [480]> model_stages_2_blocks_2_attn_qkv_bias_to_fp16 = const()[name = tensor<string, []>("model_stages_2_blocks_2_attn_qkv_bias_to_fp16"), val = tensor<fp16, [480]>(BLOBFILE(path = tensor<string, []>("@model_path/weights/weight.bin"), offset = tensor<uint64, []>(3338368)))];
            tensor<fp16, [1, 196, 480]> linear_16_cast_fp16 = linear(bias = model_stages_2_blocks_2_attn_qkv_bias_to_fp16, weight = model_stages_2_blocks_2_attn_qkv_weight_to_fp16, x = input_157_cast_fp16)[name = tensor<string, []>("linear_16_cast_fp16")];
            tensor<int32, [4]> var_720 = const()[name = tensor<string, []>("op_720"), val = tensor<int32, [4]>([1, 196, 5, -1])];
            tensor<fp16, [1, 196, 5, 96]> var_721_cast_fp16 = reshape(shape = var_720, x = linear_16_cast_fp16)[name = tensor<string, []>("op_721_cast_fp16")];
            tensor<int32, [3]> var_722 = const()[name = tensor<string, []>("op_722"), val = tensor<int32, [3]>([32, 32, 32])];
            tensor<int32, []> var_723_axis_0 = const()[name = tensor<string, []>("op_723_axis_0"), val = tensor<int32, []>(3)];
            tensor<fp16, [1, 196, 5, 32]> var_723_cast_fp16_0, tensor<fp16, [1, 196, 5, 32]> var_723_cast_fp16_1, tensor<fp16, [1, 196, 5, 32]> var_723_cast_fp16_2 = split(axis = var_723_axis_0, split_sizes = var_722, x = var_721_cast_fp16)[name = tensor<string, []>("op_723_cast_fp16")];
            tensor<int32, [4]> var_731 = const()[name = tensor<string, []>("op_731"), val = tensor<int32, [4]>([0, 2, 1, 3])];
            tensor<fp16, []> mul_4_y_0_to_fp16 = const()[name = tensor<string, []>("mul_4_y_0_to_fp16"), val = tensor<fp16, []>(0x1.6ap-3)];
            tensor<fp16, [1, 196, 5, 32]> mul_4_cast_fp16 = mul(x = var_723_cast_fp16_0, y = mul_4_y_0_to_fp16)[name = tensor<string, []>("mul_4_cast_fp16")];
            tensor<bool, []> matmul_4_transpose_y_0 = const()[name = tensor<string, []>("matmul_4_transpose_y_0"), val = tensor<bool, []>(true)];
            tensor<bool, []> matmul_4_transpose_x_0 = const()[name = tensor<string, []>("matmul_4_transpose_x_0"), val = tensor<bool, []>(false)];
            tensor<int32, [4]> transpose_52_perm_0 = const()[name = tensor<string, []>("transpose_52_perm_0"), val = tensor<int32, [4]>([0, 2, -3, -1])];
            tensor<int32, [4]> transpose_53_perm_0 = const()[name = tensor<string, []>("transpose_53_perm_0"), val = tensor<int32, [4]>([0, 2, -3, -1])];
            tensor<fp16, [1, 5, 196, 32]> transpose_53 = transpose(perm = transpose_53_perm_0, x = var_723_cast_fp16_1)[name = tensor<string, []>("transpose_100")];
            tensor<fp16, [1, 5, 196, 32]> transpose_52 = transpose(perm = transpose_52_perm_0, x = mul_4_cast_fp16)[name = tensor<string, []>("transpose_101")];
            tensor<fp16, [1, 5, 196, 196]> matmul_4_cast_fp16 = matmul(transpose_x = matmul_4_transpose_x_0, transpose_y = matmul_4_transpose_y_0, x = transpose_52, y = transpose_53)[name = tensor<string, []>("matmul_4_cast_fp16")];
            tensor<fp16, [5, 196, 196]> attn_bias_9_to_fp16 = const()[name = tensor<string, []>("attn_bias_9_to_fp16"), val = tensor<fp16, [5, 196, 196]>(BLOBFILE(path = tensor<string, []>("@model_path/weights/weight.bin"), offset = tensor<uint64, []>(3339392)))];
            tensor<fp16, [1, 5, 196, 196]> add_4_cast_fp16 = add(x = matmul_4_cast_fp16, y = attn_bias_9_to_fp16)[name = tensor<string, []>("add_4_cast_fp16")];
            tensor<int32, []> softmax_4_axis_0 = const()[name = tensor<string, []>("softmax_4_axis_0"), val = tensor<int32, []>(-1)];
            tensor<fp16, [1, 5, 196, 196]> softmax_4_cast_fp16 = softmax(axis = softmax_4_axis_0, x = add_4_cast_fp16)[name = tensor<string, []>("softmax_4_cast_fp16")];
            tensor<bool, []> x_79_transpose_x_0 = const()[name = tensor<string, []>("x_79_transpose_x_0"), val = tensor<bool, []>(false)];
            tensor<bool, []> x_79_transpose_y_0 = const()[name = tensor<string, []>("x_79_transpose_y_0"), val = tensor<bool, []>(false)];
            tensor<fp16, [1, 5, 196, 32]> v_19_cast_fp16 = transpose(perm = var_731, x = var_723_cast_fp16_2)[name = tensor<string, []>("transpose_102")];
            tensor<fp16, [1, 5, 196, 32]> x_79_cast_fp16 = matmul(transpose_x = x_79_transpose_x_0, transpose_y = x_79_transpose_y_0, x = softmax_4_cast_fp16, y = v_19_cast_fp16)[name = tensor<string, []>("x_79_cast_fp16")];
            tensor<int32, [4]> var_734_perm_0 = const()[name = tensor<string, []>("op_734_perm_0"), val = tensor<int32, [4]>([0, 2, 1, 3])];
            tensor<int32, [3]> var_735 = const()[name = tensor<string, []>("op_735"), val = tensor<int32, [3]>([1, 196, 160])];
            tensor<fp16, [1, 196, 5, 32]> var_734_cast_fp16 = transpose(perm = var_734_perm_0, x = x_79_cast_fp16)[name = tensor<string, []>("transpose_99")];
            tensor<fp16, [1, 196, 160]> input_159_cast_fp16 = reshape(shape = var_735, x = var_734_cast_fp16)[name = tensor<string, []>("input_159_cast_fp16")];
            tensor<fp16, [160, 160]> model_stages_2_blocks_2_attn_proj_weight_to_fp16 = const()[name = tensor<string, []>("model_stages_2_blocks_2_attn_proj_weight_to_fp16"), val = tensor<fp16, [160, 160]>(BLOBFILE(path = tensor<string, []>("@model_path/weights/weight.bin"), offset = tensor<uint64, []>(3723648)))];
            tensor<fp16, [160]> model_stages_2_blocks_2_attn_proj_bias_to_fp16 = const()[name = tensor<string, []>("model_stages_2_blocks_2_attn_proj_bias_to_fp16"), val = tensor<fp16, [160]>(BLOBFILE(path = tensor<string, []>("@model_path/weights/weight.bin"), offset = tensor<uint64, []>(3774912)))];
            tensor<fp16, [1, 196, 160]> linear_17_cast_fp16 = linear(bias = model_stages_2_blocks_2_attn_proj_bias_to_fp16, weight = model_stages_2_blocks_2_attn_proj_weight_to_fp16, x = input_159_cast_fp16)[name = tensor<string, []>("linear_17_cast_fp16")];
            tensor<int32, [4]> var_740 = const()[name = tensor<string, []>("op_740"), val = tensor<int32, [4]>([1, 14, 14, 160])];
            tensor<fp16, [1, 14, 14, 160]> x_83_cast_fp16 = reshape(shape = var_740, x = linear_17_cast_fp16)[name = tensor<string, []>("x_83_cast_fp16")];
            tensor<fp16, [1, 14, 14, 160]> x_85_cast_fp16 = add(x = x_75_cast_fp16, y = x_83_cast_fp16)[name = tensor<string, []>("x_85_cast_fp16")];
            tensor<int32, [4]> var_743 = const()[name = tensor<string, []>("op_743"), val = tensor<int32, [4]>([0, 3, 1, 2])];
            tensor<string, []> input_163_pad_type_0 = const()[name = tensor<string, []>("input_163_pad_type_0"), val = tensor<string, []>("custom")];
            tensor<int32, [4]> input_163_pad_0 = const()[name = tensor<string, []>("input_163_pad_0"), val = tensor<int32, [4]>([1, 1, 1, 1])];
            tensor<int32, []> input_163_groups_0 = const()[name = tensor<string, []>("input_163_groups_0"), val = tensor<int32, []>(160)];
            tensor<int32, [2]> input_163_strides_0 = const()[name = tensor<string, []>("input_163_strides_0"), val = tensor<int32, [2]>([1, 1])];
            tensor<int32, [2]> input_163_dilations_0 = const()[name = tensor<string, []>("input_163_dilations_0"), val = tensor<int32, [2]>([1, 1])];
            tensor<fp16, [160, 1, 3, 3]> const_97_to_fp16 = const()[name = tensor<string, []>("const_97_to_fp16"), val = tensor<fp16, [160, 1, 3, 3]>(BLOBFILE(path = tensor<string, []>("@model_path/weights/weight.bin"), offset = tensor<uint64, []>(3775296)))];
            tensor<fp16, [160]> const_98_to_fp16 = const()[name = tensor<string, []>("const_98_to_fp16"), val = tensor<fp16, [160]>(BLOBFILE(path = tensor<string, []>("@model_path/weights/weight.bin"), offset = tensor<uint64, []>(3778240)))];
            tensor<fp16, [1, 160, 14, 14]> input_161_cast_fp16 = transpose(perm = var_743, x = x_85_cast_fp16)[name = tensor<string, []>("transpose_98")];
            tensor<fp16, [1, 160, 14, 14]> x_87_cast_fp16 = conv(bias = const_98_to_fp16, dilations = input_163_dilations_0, groups = input_163_groups_0, pad = input_163_pad_0, pad_type = input_163_pad_type_0, strides = input_163_strides_0, weight = const_97_to_fp16, x = input_161_cast_fp16)[name = tensor<string, []>("x_87_cast_fp16")];
            tensor<int32, [3]> var_758 = const()[name = tensor<string, []>("op_758"), val = tensor<int32, [3]>([1, 160, 196])];
            tensor<fp16, [1, 160, 196]> var_759_cast_fp16 = reshape(shape = var_758, x = x_87_cast_fp16)[name = tensor<string, []>("op_759_cast_fp16")];
            tensor<int32, [3]> input_165_perm_0 = const()[name = tensor<string, []>("input_165_perm_0"), val = tensor<int32, [3]>([0, 2, 1])];
            tensor<int32, [1]> input_167_axes_0 = const()[name = tensor<string, []>("input_167_axes_0"), val = tensor<int32, [1]>([-1])];
            tensor<fp16, [160]> model_stages_2_blocks_2_mlp_norm_weight_to_fp16 = const()[name = tensor<string, []>("model_stages_2_blocks_2_mlp_norm_weight_to_fp16"), val = tensor<fp16, [160]>(BLOBFILE(path = tensor<string, []>("@model_path/weights/weight.bin"), offset = tensor<uint64, []>(3778624)))];
            tensor<fp16, [160]> model_stages_2_blocks_2_mlp_norm_bias_to_fp16 = const()[name = tensor<string, []>("model_stages_2_blocks_2_mlp_norm_bias_to_fp16"), val = tensor<fp16, [160]>(BLOBFILE(path = tensor<string, []>("@model_path/weights/weight.bin"), offset = tensor<uint64, []>(3779008)))];
            tensor<fp16, [1, 196, 160]> input_165_cast_fp16 = transpose(perm = input_165_perm_0, x = var_759_cast_fp16)[name = tensor<string, []>("transpose_97")];
            tensor<fp16, [1, 196, 160]> input_167_cast_fp16 = layer_norm(axes = input_167_axes_0, beta = model_stages_2_blocks_2_mlp_norm_bias_to_fp16, epsilon = var_62_to_fp16, gamma = model_stages_2_blocks_2_mlp_norm_weight_to_fp16, x = input_165_cast_fp16)[name = tensor<string, []>("input_167_cast_fp16")];
            tensor<fp16, [640, 160]> model_stages_2_blocks_2_mlp_fc1_weight_to_fp16 = const()[name = tensor<string, []>("model_stages_2_blocks_2_mlp_fc1_weight_to_fp16"), val = tensor<fp16, [640, 160]>(BLOBFILE(path = tensor<string, []>("@model_path/weights/weight.bin"), offset = tensor<uint64, []>(3779392)))];
            tensor<fp16, [640]> model_stages_2_blocks_2_mlp_fc1_bias_to_fp16 = const()[name = tensor<string, []>("model_stages_2_blocks_2_mlp_fc1_bias_to_fp16"), val = tensor<fp16, [640]>(BLOBFILE(path = tensor<string, []>("@model_path/weights/weight.bin"), offset = tensor<uint64, []>(3984256)))];
            tensor<fp16, [1, 196, 640]> linear_18_cast_fp16 = linear(bias = model_stages_2_blocks_2_mlp_fc1_bias_to_fp16, weight = model_stages_2_blocks_2_mlp_fc1_weight_to_fp16, x = input_167_cast_fp16)[name = tensor<string, []>("linear_18_cast_fp16")];
            tensor<string, []> input_171_mode_0 = const()[name = tensor<string, []>("input_171_mode_0"), val = tensor<string, []>("EXACT")];
            tensor<fp16, [1, 196, 640]> input_171_cast_fp16 = gelu(mode = input_171_mode_0, x = linear_18_cast_fp16)[name = tensor<string, []>("input_171_cast_fp16")];
            tensor<fp16, [160, 640]> model_stages_2_blocks_2_mlp_fc2_weight_to_fp16 = const()[name = tensor<string, []>("model_stages_2_blocks_2_mlp_fc2_weight_to_fp16"), val = tensor<fp16, [160, 640]>(BLOBFILE(path = tensor<string, []>("@model_path/weights/weight.bin"), offset = tensor<uint64, []>(3985600)))];
            tensor<fp16, [160]> model_stages_2_blocks_2_mlp_fc2_bias_to_fp16 = const()[name = tensor<string, []>("model_stages_2_blocks_2_mlp_fc2_bias_to_fp16"), val = tensor<fp16, [160]>(BLOBFILE(path = tensor<string, []>("@model_path/weights/weight.bin"), offset = tensor<uint64, []>(4190464)))];
            tensor<fp16, [1, 196, 160]> linear_19_cast_fp16 = linear(bias = model_stages_2_blocks_2_mlp_fc2_bias_to_fp16, weight = model_stages_2_blocks_2_mlp_fc2_weight_to_fp16, x = input_171_cast_fp16)[name = tensor<string, []>("linear_19_cast_fp16")];
            tensor<fp16, [1, 196, 160]> x_89_cast_fp16 = add(x = input_165_cast_fp16, y = linear_19_cast_fp16)[name = tensor<string, []>("x_89_cast_fp16")];
            tensor<int32, [4]> var_778 = const()[name = tensor<string, []>("op_778"), val = tensor<int32, [4]>([1, 14, 14, 160])];
            tensor<fp16, [1, 14, 14, 160]> x_91_cast_fp16 = reshape(shape = var_778, x = x_89_cast_fp16)[name = tensor<string, []>("x_91_cast_fp16")];
            tensor<int32, [3]> var_792 = const()[name = tensor<string, []>("op_792"), val = tensor<int32, [3]>([1, 196, 160])];
            tensor<fp16, [1, 196, 160]> x_93_cast_fp16 = reshape(shape = var_792, x = x_91_cast_fp16)[name = tensor<string, []>("x_93_cast_fp16")];
            tensor<int32, [1]> input_177_axes_0 = const()[name = tensor<string, []>("input_177_axes_0"), val = tensor<int32, [1]>([-1])];
            tensor<fp16, [160]> model_stages_2_blocks_3_attn_norm_weight_to_fp16 = const()[name = tensor<string, []>("model_stages_2_blocks_3_attn_norm_weight_to_fp16"), val = tensor<fp16, [160]>(BLOBFILE(path = tensor<string, []>("@model_path/weights/weight.bin"), offset = tensor<uint64, []>(4190848)))];
            tensor<fp16, [160]> model_stages_2_blocks_3_attn_norm_bias_to_fp16 = const()[name = tensor<string, []>("model_stages_2_blocks_3_attn_norm_bias_to_fp16"), val = tensor<fp16, [160]>(BLOBFILE(path = tensor<string, []>("@model_path/weights/weight.bin"), offset = tensor<uint64, []>(4191232)))];
            tensor<fp16, [1, 196, 160]> input_177_cast_fp16 = layer_norm(axes = input_177_axes_0, beta = model_stages_2_blocks_3_attn_norm_bias_to_fp16, epsilon = var_62_to_fp16, gamma = model_stages_2_blocks_3_attn_norm_weight_to_fp16, x = x_93_cast_fp16)[name = tensor<string, []>("input_177_cast_fp16")];
            tensor<fp16, [480, 160]> model_stages_2_blocks_3_attn_qkv_weight_to_fp16 = const()[name = tensor<string, []>("model_stages_2_blocks_3_attn_qkv_weight_to_fp16"), val = tensor<fp16, [480, 160]>(BLOBFILE(path = tensor<string, []>("@model_path/weights/weight.bin"), offset = tensor<uint64, []>(4191616)))];
            tensor<fp16, [480]> model_stages_2_blocks_3_attn_qkv_bias_to_fp16 = const()[name = tensor<string, []>("model_stages_2_blocks_3_attn_qkv_bias_to_fp16"), val = tensor<fp16, [480]>(BLOBFILE(path = tensor<string, []>("@model_path/weights/weight.bin"), offset = tensor<uint64, []>(4345280)))];
            tensor<fp16, [1, 196, 480]> linear_20_cast_fp16 = linear(bias = model_stages_2_blocks_3_attn_qkv_bias_to_fp16, weight = model_stages_2_blocks_3_attn_qkv_weight_to_fp16, x = input_177_cast_fp16)[name = tensor<string, []>("linear_20_cast_fp16")];
            tensor<int32, [4]> var_811 = const()[name = tensor<string, []>("op_811"), val = tensor<int32, [4]>([1, 196, 5, -1])];
            tensor<fp16, [1, 196, 5, 96]> var_812_cast_fp16 = reshape(shape = var_811, x = linear_20_cast_fp16)[name = tensor<string, []>("op_812_cast_fp16")];
            tensor<int32, [3]> var_813 = const()[name = tensor<string, []>("op_813"), val = tensor<int32, [3]>([32, 32, 32])];
            tensor<int32, []> var_814_axis_0 = const()[name = tensor<string, []>("op_814_axis_0"), val = tensor<int32, []>(3)];
            tensor<fp16, [1, 196, 5, 32]> var_814_cast_fp16_0, tensor<fp16, [1, 196, 5, 32]> var_814_cast_fp16_1, tensor<fp16, [1, 196, 5, 32]> var_814_cast_fp16_2 = split(axis = var_814_axis_0, split_sizes = var_813, x = var_812_cast_fp16)[name = tensor<string, []>("op_814_cast_fp16")];
            tensor<int32, [4]> var_822 = const()[name = tensor<string, []>("op_822"), val = tensor<int32, [4]>([0, 2, 1, 3])];
            tensor<fp16, []> mul_5_y_0_to_fp16 = const()[name = tensor<string, []>("mul_5_y_0_to_fp16"), val = tensor<fp16, []>(0x1.6ap-3)];
            tensor<fp16, [1, 196, 5, 32]> mul_5_cast_fp16 = mul(x = var_814_cast_fp16_0, y = mul_5_y_0_to_fp16)[name = tensor<string, []>("mul_5_cast_fp16")];
            tensor<bool, []> matmul_5_transpose_y_0 = const()[name = tensor<string, []>("matmul_5_transpose_y_0"), val = tensor<bool, []>(true)];
            tensor<bool, []> matmul_5_transpose_x_0 = const()[name = tensor<string, []>("matmul_5_transpose_x_0"), val = tensor<bool, []>(false)];
            tensor<int32, [4]> transpose_54_perm_0 = const()[name = tensor<string, []>("transpose_54_perm_0"), val = tensor<int32, [4]>([0, 2, -3, -1])];
            tensor<int32, [4]> transpose_55_perm_0 = const()[name = tensor<string, []>("transpose_55_perm_0"), val = tensor<int32, [4]>([0, 2, -3, -1])];
            tensor<fp16, [1, 5, 196, 32]> transpose_55 = transpose(perm = transpose_55_perm_0, x = var_814_cast_fp16_1)[name = tensor<string, []>("transpose_94")];
            tensor<fp16, [1, 5, 196, 32]> transpose_54 = transpose(perm = transpose_54_perm_0, x = mul_5_cast_fp16)[name = tensor<string, []>("transpose_95")];
            tensor<fp16, [1, 5, 196, 196]> matmul_5_cast_fp16 = matmul(transpose_x = matmul_5_transpose_x_0, transpose_y = matmul_5_transpose_y_0, x = transpose_54, y = transpose_55)[name = tensor<string, []>("matmul_5_cast_fp16")];
            tensor<fp16, [5, 196, 196]> attn_bias_11_to_fp16 = const()[name = tensor<string, []>("attn_bias_11_to_fp16"), val = tensor<fp16, [5, 196, 196]>(BLOBFILE(path = tensor<string, []>("@model_path/weights/weight.bin"), offset = tensor<uint64, []>(4346304)))];
            tensor<fp16, [1, 5, 196, 196]> add_5_cast_fp16 = add(x = matmul_5_cast_fp16, y = attn_bias_11_to_fp16)[name = tensor<string, []>("add_5_cast_fp16")];
            tensor<int32, []> softmax_5_axis_0 = const()[name = tensor<string, []>("softmax_5_axis_0"), val = tensor<int32, []>(-1)];
            tensor<fp16, [1, 5, 196, 196]> softmax_5_cast_fp16 = softmax(axis = softmax_5_axis_0, x = add_5_cast_fp16)[name = tensor<string, []>("softmax_5_cast_fp16")];
            tensor<bool, []> x_95_transpose_x_0 = const()[name = tensor<string, []>("x_95_transpose_x_0"), val = tensor<bool, []>(false)];
            tensor<bool, []> x_95_transpose_y_0 = const()[name = tensor<string, []>("x_95_transpose_y_0"), val = tensor<bool, []>(false)];
            tensor<fp16, [1, 5, 196, 32]> v_23_cast_fp16 = transpose(perm = var_822, x = var_814_cast_fp16_2)[name = tensor<string, []>("transpose_96")];
            tensor<fp16, [1, 5, 196, 32]> x_95_cast_fp16 = matmul(transpose_x = x_95_transpose_x_0, transpose_y = x_95_transpose_y_0, x = softmax_5_cast_fp16, y = v_23_cast_fp16)[name = tensor<string, []>("x_95_cast_fp16")];
            tensor<int32, [4]> var_825_perm_0 = const()[name = tensor<string, []>("op_825_perm_0"), val = tensor<int32, [4]>([0, 2, 1, 3])];
            tensor<int32, [3]> var_826 = const()[name = tensor<string, []>("op_826"), val = tensor<int32, [3]>([1, 196, 160])];
            tensor<fp16, [1, 196, 5, 32]> var_825_cast_fp16 = transpose(perm = var_825_perm_0, x = x_95_cast_fp16)[name = tensor<string, []>("transpose_93")];
            tensor<fp16, [1, 196, 160]> input_179_cast_fp16 = reshape(shape = var_826, x = var_825_cast_fp16)[name = tensor<string, []>("input_179_cast_fp16")];
            tensor<fp16, [160, 160]> model_stages_2_blocks_3_attn_proj_weight_to_fp16 = const()[name = tensor<string, []>("model_stages_2_blocks_3_attn_proj_weight_to_fp16"), val = tensor<fp16, [160, 160]>(BLOBFILE(path = tensor<string, []>("@model_path/weights/weight.bin"), offset = tensor<uint64, []>(4730560)))];
            tensor<fp16, [160]> model_stages_2_blocks_3_attn_proj_bias_to_fp16 = const()[name = tensor<string, []>("model_stages_2_blocks_3_attn_proj_bias_to_fp16"), val = tensor<fp16, [160]>(BLOBFILE(path = tensor<string, []>("@model_path/weights/weight.bin"), offset = tensor<uint64, []>(4781824)))];
            tensor<fp16, [1, 196, 160]> linear_21_cast_fp16 = linear(bias = model_stages_2_blocks_3_attn_proj_bias_to_fp16, weight = model_stages_2_blocks_3_attn_proj_weight_to_fp16, x = input_179_cast_fp16)[name = tensor<string, []>("linear_21_cast_fp16")];
            tensor<int32, [4]> var_831 = const()[name = tensor<string, []>("op_831"), val = tensor<int32, [4]>([1, 14, 14, 160])];
            tensor<fp16, [1, 14, 14, 160]> x_99_cast_fp16 = reshape(shape = var_831, x = linear_21_cast_fp16)[name = tensor<string, []>("x_99_cast_fp16")];
            tensor<fp16, [1, 14, 14, 160]> x_101_cast_fp16 = add(x = x_91_cast_fp16, y = x_99_cast_fp16)[name = tensor<string, []>("x_101_cast_fp16")];
            tensor<int32, [4]> var_834 = const()[name = tensor<string, []>("op_834"), val = tensor<int32, [4]>([0, 3, 1, 2])];
            tensor<string, []> input_183_pad_type_0 = const()[name = tensor<string, []>("input_183_pad_type_0"), val = tensor<string, []>("custom")];
            tensor<int32, [4]> input_183_pad_0 = const()[name = tensor<string, []>("input_183_pad_0"), val = tensor<int32, [4]>([1, 1, 1, 1])];
            tensor<int32, []> input_183_groups_0 = const()[name = tensor<string, []>("input_183_groups_0"), val = tensor<int32, []>(160)];
            tensor<int32, [2]> input_183_strides_0 = const()[name = tensor<string, []>("input_183_strides_0"), val = tensor<int32, [2]>([1, 1])];
            tensor<int32, [2]> input_183_dilations_0 = const()[name = tensor<string, []>("input_183_dilations_0"), val = tensor<int32, [2]>([1, 1])];
            tensor<fp16, [160, 1, 3, 3]> const_99_to_fp16 = const()[name = tensor<string, []>("const_99_to_fp16"), val = tensor<fp16, [160, 1, 3, 3]>(BLOBFILE(path = tensor<string, []>("@model_path/weights/weight.bin"), offset = tensor<uint64, []>(4782208)))];
            tensor<fp16, [160]> const_100_to_fp16 = const()[name = tensor<string, []>("const_100_to_fp16"), val = tensor<fp16, [160]>(BLOBFILE(path = tensor<string, []>("@model_path/weights/weight.bin"), offset = tensor<uint64, []>(4785152)))];
            tensor<fp16, [1, 160, 14, 14]> input_181_cast_fp16 = transpose(perm = var_834, x = x_101_cast_fp16)[name = tensor<string, []>("transpose_92")];
            tensor<fp16, [1, 160, 14, 14]> x_103_cast_fp16 = conv(bias = const_100_to_fp16, dilations = input_183_dilations_0, groups = input_183_groups_0, pad = input_183_pad_0, pad_type = input_183_pad_type_0, strides = input_183_strides_0, weight = const_99_to_fp16, x = input_181_cast_fp16)[name = tensor<string, []>("x_103_cast_fp16")];
            tensor<int32, [3]> var_849 = const()[name = tensor<string, []>("op_849"), val = tensor<int32, [3]>([1, 160, 196])];
            tensor<fp16, [1, 160, 196]> var_850_cast_fp16 = reshape(shape = var_849, x = x_103_cast_fp16)[name = tensor<string, []>("op_850_cast_fp16")];
            tensor<int32, [3]> input_185_perm_0 = const()[name = tensor<string, []>("input_185_perm_0"), val = tensor<int32, [3]>([0, 2, 1])];
            tensor<int32, [1]> input_187_axes_0 = const()[name = tensor<string, []>("input_187_axes_0"), val = tensor<int32, [1]>([-1])];
            tensor<fp16, [160]> model_stages_2_blocks_3_mlp_norm_weight_to_fp16 = const()[name = tensor<string, []>("model_stages_2_blocks_3_mlp_norm_weight_to_fp16"), val = tensor<fp16, [160]>(BLOBFILE(path = tensor<string, []>("@model_path/weights/weight.bin"), offset = tensor<uint64, []>(4785536)))];
            tensor<fp16, [160]> model_stages_2_blocks_3_mlp_norm_bias_to_fp16 = const()[name = tensor<string, []>("model_stages_2_blocks_3_mlp_norm_bias_to_fp16"), val = tensor<fp16, [160]>(BLOBFILE(path = tensor<string, []>("@model_path/weights/weight.bin"), offset = tensor<uint64, []>(4785920)))];
            tensor<fp16, [1, 196, 160]> input_185_cast_fp16 = transpose(perm = input_185_perm_0, x = var_850_cast_fp16)[name = tensor<string, []>("transpose_91")];
            tensor<fp16, [1, 196, 160]> input_187_cast_fp16 = layer_norm(axes = input_187_axes_0, beta = model_stages_2_blocks_3_mlp_norm_bias_to_fp16, epsilon = var_62_to_fp16, gamma = model_stages_2_blocks_3_mlp_norm_weight_to_fp16, x = input_185_cast_fp16)[name = tensor<string, []>("input_187_cast_fp16")];
            tensor<fp16, [640, 160]> model_stages_2_blocks_3_mlp_fc1_weight_to_fp16 = const()[name = tensor<string, []>("model_stages_2_blocks_3_mlp_fc1_weight_to_fp16"), val = tensor<fp16, [640, 160]>(BLOBFILE(path = tensor<string, []>("@model_path/weights/weight.bin"), offset = tensor<uint64, []>(4786304)))];
            tensor<fp16, [640]> model_stages_2_blocks_3_mlp_fc1_bias_to_fp16 = const()[name = tensor<string, []>("model_stages_2_blocks_3_mlp_fc1_bias_to_fp16"), val = tensor<fp16, [640]>(BLOBFILE(path = tensor<string, []>("@model_path/weights/weight.bin"), offset = tensor<uint64, []>(4991168)))];
            tensor<fp16, [1, 196, 640]> linear_22_cast_fp16 = linear(bias = model_stages_2_blocks_3_mlp_fc1_bias_to_fp16, weight = model_stages_2_blocks_3_mlp_fc1_weight_to_fp16, x = input_187_cast_fp16)[name = tensor<string, []>("linear_22_cast_fp16")];
            tensor<string, []> input_191_mode_0 = const()[name = tensor<string, []>("input_191_mode_0"), val = tensor<string, []>("EXACT")];
            tensor<fp16, [1, 196, 640]> input_191_cast_fp16 = gelu(mode = input_191_mode_0, x = linear_22_cast_fp16)[name = tensor<string, []>("input_191_cast_fp16")];
            tensor<fp16, [160, 640]> model_stages_2_blocks_3_mlp_fc2_weight_to_fp16 = const()[name = tensor<string, []>("model_stages_2_blocks_3_mlp_fc2_weight_to_fp16"), val = tensor<fp16, [160, 640]>(BLOBFILE(path = tensor<string, []>("@model_path/weights/weight.bin"), offset = tensor<uint64, []>(4992512)))];
            tensor<fp16, [160]> model_stages_2_blocks_3_mlp_fc2_bias_to_fp16 = const()[name = tensor<string, []>("model_stages_2_blocks_3_mlp_fc2_bias_to_fp16"), val = tensor<fp16, [160]>(BLOBFILE(path = tensor<string, []>("@model_path/weights/weight.bin"), offset = tensor<uint64, []>(5197376)))];
            tensor<fp16, [1, 196, 160]> linear_23_cast_fp16 = linear(bias = model_stages_2_blocks_3_mlp_fc2_bias_to_fp16, weight = model_stages_2_blocks_3_mlp_fc2_weight_to_fp16, x = input_191_cast_fp16)[name = tensor<string, []>("linear_23_cast_fp16")];
            tensor<fp16, [1, 196, 160]> x_105_cast_fp16 = add(x = input_185_cast_fp16, y = linear_23_cast_fp16)[name = tensor<string, []>("x_105_cast_fp16")];
            tensor<int32, [4]> var_869 = const()[name = tensor<string, []>("op_869"), val = tensor<int32, [4]>([1, 14, 14, 160])];
            tensor<fp16, [1, 14, 14, 160]> x_107_cast_fp16 = reshape(shape = var_869, x = x_105_cast_fp16)[name = tensor<string, []>("x_107_cast_fp16")];
            tensor<int32, [3]> var_883 = const()[name = tensor<string, []>("op_883"), val = tensor<int32, [3]>([1, 196, 160])];
            tensor<fp16, [1, 196, 160]> x_109_cast_fp16 = reshape(shape = var_883, x = x_107_cast_fp16)[name = tensor<string, []>("x_109_cast_fp16")];
            tensor<int32, [1]> input_197_axes_0 = const()[name = tensor<string, []>("input_197_axes_0"), val = tensor<int32, [1]>([-1])];
            tensor<fp16, [160]> model_stages_2_blocks_4_attn_norm_weight_to_fp16 = const()[name = tensor<string, []>("model_stages_2_blocks_4_attn_norm_weight_to_fp16"), val = tensor<fp16, [160]>(BLOBFILE(path = tensor<string, []>("@model_path/weights/weight.bin"), offset = tensor<uint64, []>(5197760)))];
            tensor<fp16, [160]> model_stages_2_blocks_4_attn_norm_bias_to_fp16 = const()[name = tensor<string, []>("model_stages_2_blocks_4_attn_norm_bias_to_fp16"), val = tensor<fp16, [160]>(BLOBFILE(path = tensor<string, []>("@model_path/weights/weight.bin"), offset = tensor<uint64, []>(5198144)))];
            tensor<fp16, [1, 196, 160]> input_197_cast_fp16 = layer_norm(axes = input_197_axes_0, beta = model_stages_2_blocks_4_attn_norm_bias_to_fp16, epsilon = var_62_to_fp16, gamma = model_stages_2_blocks_4_attn_norm_weight_to_fp16, x = x_109_cast_fp16)[name = tensor<string, []>("input_197_cast_fp16")];
            tensor<fp16, [480, 160]> model_stages_2_blocks_4_attn_qkv_weight_to_fp16 = const()[name = tensor<string, []>("model_stages_2_blocks_4_attn_qkv_weight_to_fp16"), val = tensor<fp16, [480, 160]>(BLOBFILE(path = tensor<string, []>("@model_path/weights/weight.bin"), offset = tensor<uint64, []>(5198528)))];
            tensor<fp16, [480]> model_stages_2_blocks_4_attn_qkv_bias_to_fp16 = const()[name = tensor<string, []>("model_stages_2_blocks_4_attn_qkv_bias_to_fp16"), val = tensor<fp16, [480]>(BLOBFILE(path = tensor<string, []>("@model_path/weights/weight.bin"), offset = tensor<uint64, []>(5352192)))];
            tensor<fp16, [1, 196, 480]> linear_24_cast_fp16 = linear(bias = model_stages_2_blocks_4_attn_qkv_bias_to_fp16, weight = model_stages_2_blocks_4_attn_qkv_weight_to_fp16, x = input_197_cast_fp16)[name = tensor<string, []>("linear_24_cast_fp16")];
            tensor<int32, [4]> var_902 = const()[name = tensor<string, []>("op_902"), val = tensor<int32, [4]>([1, 196, 5, -1])];
            tensor<fp16, [1, 196, 5, 96]> var_903_cast_fp16 = reshape(shape = var_902, x = linear_24_cast_fp16)[name = tensor<string, []>("op_903_cast_fp16")];
            tensor<int32, [3]> var_904 = const()[name = tensor<string, []>("op_904"), val = tensor<int32, [3]>([32, 32, 32])];
            tensor<int32, []> var_905_axis_0 = const()[name = tensor<string, []>("op_905_axis_0"), val = tensor<int32, []>(3)];
            tensor<fp16, [1, 196, 5, 32]> var_905_cast_fp16_0, tensor<fp16, [1, 196, 5, 32]> var_905_cast_fp16_1, tensor<fp16, [1, 196, 5, 32]> var_905_cast_fp16_2 = split(axis = var_905_axis_0, split_sizes = var_904, x = var_903_cast_fp16)[name = tensor<string, []>("op_905_cast_fp16")];
            tensor<int32, [4]> var_913 = const()[name = tensor<string, []>("op_913"), val = tensor<int32, [4]>([0, 2, 1, 3])];
            tensor<fp16, []> mul_6_y_0_to_fp16 = const()[name = tensor<string, []>("mul_6_y_0_to_fp16"), val = tensor<fp16, []>(0x1.6ap-3)];
            tensor<fp16, [1, 196, 5, 32]> mul_6_cast_fp16 = mul(x = var_905_cast_fp16_0, y = mul_6_y_0_to_fp16)[name = tensor<string, []>("mul_6_cast_fp16")];
            tensor<bool, []> matmul_6_transpose_y_0 = const()[name = tensor<string, []>("matmul_6_transpose_y_0"), val = tensor<bool, []>(true)];
            tensor<bool, []> matmul_6_transpose_x_0 = const()[name = tensor<string, []>("matmul_6_transpose_x_0"), val = tensor<bool, []>(false)];
            tensor<int32, [4]> transpose_56_perm_0 = const()[name = tensor<string, []>("transpose_56_perm_0"), val = tensor<int32, [4]>([0, 2, -3, -1])];
            tensor<int32, [4]> transpose_57_perm_0 = const()[name = tensor<string, []>("transpose_57_perm_0"), val = tensor<int32, [4]>([0, 2, -3, -1])];
            tensor<fp16, [1, 5, 196, 32]> transpose_57 = transpose(perm = transpose_57_perm_0, x = var_905_cast_fp16_1)[name = tensor<string, []>("transpose_88")];
            tensor<fp16, [1, 5, 196, 32]> transpose_56 = transpose(perm = transpose_56_perm_0, x = mul_6_cast_fp16)[name = tensor<string, []>("transpose_89")];
            tensor<fp16, [1, 5, 196, 196]> matmul_6_cast_fp16 = matmul(transpose_x = matmul_6_transpose_x_0, transpose_y = matmul_6_transpose_y_0, x = transpose_56, y = transpose_57)[name = tensor<string, []>("matmul_6_cast_fp16")];
            tensor<fp16, [5, 196, 196]> attn_bias_13_to_fp16 = const()[name = tensor<string, []>("attn_bias_13_to_fp16"), val = tensor<fp16, [5, 196, 196]>(BLOBFILE(path = tensor<string, []>("@model_path/weights/weight.bin"), offset = tensor<uint64, []>(5353216)))];
            tensor<fp16, [1, 5, 196, 196]> add_6_cast_fp16 = add(x = matmul_6_cast_fp16, y = attn_bias_13_to_fp16)[name = tensor<string, []>("add_6_cast_fp16")];
            tensor<int32, []> softmax_6_axis_0 = const()[name = tensor<string, []>("softmax_6_axis_0"), val = tensor<int32, []>(-1)];
            tensor<fp16, [1, 5, 196, 196]> softmax_6_cast_fp16 = softmax(axis = softmax_6_axis_0, x = add_6_cast_fp16)[name = tensor<string, []>("softmax_6_cast_fp16")];
            tensor<bool, []> x_111_transpose_x_0 = const()[name = tensor<string, []>("x_111_transpose_x_0"), val = tensor<bool, []>(false)];
            tensor<bool, []> x_111_transpose_y_0 = const()[name = tensor<string, []>("x_111_transpose_y_0"), val = tensor<bool, []>(false)];
            tensor<fp16, [1, 5, 196, 32]> v_27_cast_fp16 = transpose(perm = var_913, x = var_905_cast_fp16_2)[name = tensor<string, []>("transpose_90")];
            tensor<fp16, [1, 5, 196, 32]> x_111_cast_fp16 = matmul(transpose_x = x_111_transpose_x_0, transpose_y = x_111_transpose_y_0, x = softmax_6_cast_fp16, y = v_27_cast_fp16)[name = tensor<string, []>("x_111_cast_fp16")];
            tensor<int32, [4]> var_916_perm_0 = const()[name = tensor<string, []>("op_916_perm_0"), val = tensor<int32, [4]>([0, 2, 1, 3])];
            tensor<int32, [3]> var_917 = const()[name = tensor<string, []>("op_917"), val = tensor<int32, [3]>([1, 196, 160])];
            tensor<fp16, [1, 196, 5, 32]> var_916_cast_fp16 = transpose(perm = var_916_perm_0, x = x_111_cast_fp16)[name = tensor<string, []>("transpose_87")];
            tensor<fp16, [1, 196, 160]> input_199_cast_fp16 = reshape(shape = var_917, x = var_916_cast_fp16)[name = tensor<string, []>("input_199_cast_fp16")];
            tensor<fp16, [160, 160]> model_stages_2_blocks_4_attn_proj_weight_to_fp16 = const()[name = tensor<string, []>("model_stages_2_blocks_4_attn_proj_weight_to_fp16"), val = tensor<fp16, [160, 160]>(BLOBFILE(path = tensor<string, []>("@model_path/weights/weight.bin"), offset = tensor<uint64, []>(5737472)))];
            tensor<fp16, [160]> model_stages_2_blocks_4_attn_proj_bias_to_fp16 = const()[name = tensor<string, []>("model_stages_2_blocks_4_attn_proj_bias_to_fp16"), val = tensor<fp16, [160]>(BLOBFILE(path = tensor<string, []>("@model_path/weights/weight.bin"), offset = tensor<uint64, []>(5788736)))];
            tensor<fp16, [1, 196, 160]> linear_25_cast_fp16 = linear(bias = model_stages_2_blocks_4_attn_proj_bias_to_fp16, weight = model_stages_2_blocks_4_attn_proj_weight_to_fp16, x = input_199_cast_fp16)[name = tensor<string, []>("linear_25_cast_fp16")];
            tensor<int32, [4]> var_922 = const()[name = tensor<string, []>("op_922"), val = tensor<int32, [4]>([1, 14, 14, 160])];
            tensor<fp16, [1, 14, 14, 160]> x_115_cast_fp16 = reshape(shape = var_922, x = linear_25_cast_fp16)[name = tensor<string, []>("x_115_cast_fp16")];
            tensor<fp16, [1, 14, 14, 160]> x_117_cast_fp16 = add(x = x_107_cast_fp16, y = x_115_cast_fp16)[name = tensor<string, []>("x_117_cast_fp16")];
            tensor<int32, [4]> var_925 = const()[name = tensor<string, []>("op_925"), val = tensor<int32, [4]>([0, 3, 1, 2])];
            tensor<string, []> input_203_pad_type_0 = const()[name = tensor<string, []>("input_203_pad_type_0"), val = tensor<string, []>("custom")];
            tensor<int32, [4]> input_203_pad_0 = const()[name = tensor<string, []>("input_203_pad_0"), val = tensor<int32, [4]>([1, 1, 1, 1])];
            tensor<int32, []> input_203_groups_0 = const()[name = tensor<string, []>("input_203_groups_0"), val = tensor<int32, []>(160)];
            tensor<int32, [2]> input_203_strides_0 = const()[name = tensor<string, []>("input_203_strides_0"), val = tensor<int32, [2]>([1, 1])];
            tensor<int32, [2]> input_203_dilations_0 = const()[name = tensor<string, []>("input_203_dilations_0"), val = tensor<int32, [2]>([1, 1])];
            tensor<fp16, [160, 1, 3, 3]> const_101_to_fp16 = const()[name = tensor<string, []>("const_101_to_fp16"), val = tensor<fp16, [160, 1, 3, 3]>(BLOBFILE(path = tensor<string, []>("@model_path/weights/weight.bin"), offset = tensor<uint64, []>(5789120)))];
            tensor<fp16, [160]> const_102_to_fp16 = const()[name = tensor<string, []>("const_102_to_fp16"), val = tensor<fp16, [160]>(BLOBFILE(path = tensor<string, []>("@model_path/weights/weight.bin"), offset = tensor<uint64, []>(5792064)))];
            tensor<fp16, [1, 160, 14, 14]> input_201_cast_fp16 = transpose(perm = var_925, x = x_117_cast_fp16)[name = tensor<string, []>("transpose_86")];
            tensor<fp16, [1, 160, 14, 14]> x_119_cast_fp16 = conv(bias = const_102_to_fp16, dilations = input_203_dilations_0, groups = input_203_groups_0, pad = input_203_pad_0, pad_type = input_203_pad_type_0, strides = input_203_strides_0, weight = const_101_to_fp16, x = input_201_cast_fp16)[name = tensor<string, []>("x_119_cast_fp16")];
            tensor<int32, [3]> var_940 = const()[name = tensor<string, []>("op_940"), val = tensor<int32, [3]>([1, 160, 196])];
            tensor<fp16, [1, 160, 196]> var_941_cast_fp16 = reshape(shape = var_940, x = x_119_cast_fp16)[name = tensor<string, []>("op_941_cast_fp16")];
            tensor<int32, [3]> input_205_perm_0 = const()[name = tensor<string, []>("input_205_perm_0"), val = tensor<int32, [3]>([0, 2, 1])];
            tensor<int32, [1]> input_207_axes_0 = const()[name = tensor<string, []>("input_207_axes_0"), val = tensor<int32, [1]>([-1])];
            tensor<fp16, [160]> model_stages_2_blocks_4_mlp_norm_weight_to_fp16 = const()[name = tensor<string, []>("model_stages_2_blocks_4_mlp_norm_weight_to_fp16"), val = tensor<fp16, [160]>(BLOBFILE(path = tensor<string, []>("@model_path/weights/weight.bin"), offset = tensor<uint64, []>(5792448)))];
            tensor<fp16, [160]> model_stages_2_blocks_4_mlp_norm_bias_to_fp16 = const()[name = tensor<string, []>("model_stages_2_blocks_4_mlp_norm_bias_to_fp16"), val = tensor<fp16, [160]>(BLOBFILE(path = tensor<string, []>("@model_path/weights/weight.bin"), offset = tensor<uint64, []>(5792832)))];
            tensor<fp16, [1, 196, 160]> input_205_cast_fp16 = transpose(perm = input_205_perm_0, x = var_941_cast_fp16)[name = tensor<string, []>("transpose_85")];
            tensor<fp16, [1, 196, 160]> input_207_cast_fp16 = layer_norm(axes = input_207_axes_0, beta = model_stages_2_blocks_4_mlp_norm_bias_to_fp16, epsilon = var_62_to_fp16, gamma = model_stages_2_blocks_4_mlp_norm_weight_to_fp16, x = input_205_cast_fp16)[name = tensor<string, []>("input_207_cast_fp16")];
            tensor<fp16, [640, 160]> model_stages_2_blocks_4_mlp_fc1_weight_to_fp16 = const()[name = tensor<string, []>("model_stages_2_blocks_4_mlp_fc1_weight_to_fp16"), val = tensor<fp16, [640, 160]>(BLOBFILE(path = tensor<string, []>("@model_path/weights/weight.bin"), offset = tensor<uint64, []>(5793216)))];
            tensor<fp16, [640]> model_stages_2_blocks_4_mlp_fc1_bias_to_fp16 = const()[name = tensor<string, []>("model_stages_2_blocks_4_mlp_fc1_bias_to_fp16"), val = tensor<fp16, [640]>(BLOBFILE(path = tensor<string, []>("@model_path/weights/weight.bin"), offset = tensor<uint64, []>(5998080)))];
            tensor<fp16, [1, 196, 640]> linear_26_cast_fp16 = linear(bias = model_stages_2_blocks_4_mlp_fc1_bias_to_fp16, weight = model_stages_2_blocks_4_mlp_fc1_weight_to_fp16, x = input_207_cast_fp16)[name = tensor<string, []>("linear_26_cast_fp16")];
            tensor<string, []> input_211_mode_0 = const()[name = tensor<string, []>("input_211_mode_0"), val = tensor<string, []>("EXACT")];
            tensor<fp16, [1, 196, 640]> input_211_cast_fp16 = gelu(mode = input_211_mode_0, x = linear_26_cast_fp16)[name = tensor<string, []>("input_211_cast_fp16")];
            tensor<fp16, [160, 640]> model_stages_2_blocks_4_mlp_fc2_weight_to_fp16 = const()[name = tensor<string, []>("model_stages_2_blocks_4_mlp_fc2_weight_to_fp16"), val = tensor<fp16, [160, 640]>(BLOBFILE(path = tensor<string, []>("@model_path/weights/weight.bin"), offset = tensor<uint64, []>(5999424)))];
            tensor<fp16, [160]> model_stages_2_blocks_4_mlp_fc2_bias_to_fp16 = const()[name = tensor<string, []>("model_stages_2_blocks_4_mlp_fc2_bias_to_fp16"), val = tensor<fp16, [160]>(BLOBFILE(path = tensor<string, []>("@model_path/weights/weight.bin"), offset = tensor<uint64, []>(6204288)))];
            tensor<fp16, [1, 196, 160]> linear_27_cast_fp16 = linear(bias = model_stages_2_blocks_4_mlp_fc2_bias_to_fp16, weight = model_stages_2_blocks_4_mlp_fc2_weight_to_fp16, x = input_211_cast_fp16)[name = tensor<string, []>("linear_27_cast_fp16")];
            tensor<fp16, [1, 196, 160]> x_121_cast_fp16 = add(x = input_205_cast_fp16, y = linear_27_cast_fp16)[name = tensor<string, []>("x_121_cast_fp16")];
            tensor<int32, [4]> var_960 = const()[name = tensor<string, []>("op_960"), val = tensor<int32, [4]>([1, 14, 14, 160])];
            tensor<fp16, [1, 14, 14, 160]> x_123_cast_fp16 = reshape(shape = var_960, x = x_121_cast_fp16)[name = tensor<string, []>("x_123_cast_fp16")];
            tensor<int32, [3]> var_974 = const()[name = tensor<string, []>("op_974"), val = tensor<int32, [3]>([1, 196, 160])];
            tensor<fp16, [1, 196, 160]> x_125_cast_fp16 = reshape(shape = var_974, x = x_123_cast_fp16)[name = tensor<string, []>("x_125_cast_fp16")];
            tensor<int32, [1]> input_217_axes_0 = const()[name = tensor<string, []>("input_217_axes_0"), val = tensor<int32, [1]>([-1])];
            tensor<fp16, [160]> model_stages_2_blocks_5_attn_norm_weight_to_fp16 = const()[name = tensor<string, []>("model_stages_2_blocks_5_attn_norm_weight_to_fp16"), val = tensor<fp16, [160]>(BLOBFILE(path = tensor<string, []>("@model_path/weights/weight.bin"), offset = tensor<uint64, []>(6204672)))];
            tensor<fp16, [160]> model_stages_2_blocks_5_attn_norm_bias_to_fp16 = const()[name = tensor<string, []>("model_stages_2_blocks_5_attn_norm_bias_to_fp16"), val = tensor<fp16, [160]>(BLOBFILE(path = tensor<string, []>("@model_path/weights/weight.bin"), offset = tensor<uint64, []>(6205056)))];
            tensor<fp16, [1, 196, 160]> input_217_cast_fp16 = layer_norm(axes = input_217_axes_0, beta = model_stages_2_blocks_5_attn_norm_bias_to_fp16, epsilon = var_62_to_fp16, gamma = model_stages_2_blocks_5_attn_norm_weight_to_fp16, x = x_125_cast_fp16)[name = tensor<string, []>("input_217_cast_fp16")];
            tensor<fp16, [480, 160]> model_stages_2_blocks_5_attn_qkv_weight_to_fp16 = const()[name = tensor<string, []>("model_stages_2_blocks_5_attn_qkv_weight_to_fp16"), val = tensor<fp16, [480, 160]>(BLOBFILE(path = tensor<string, []>("@model_path/weights/weight.bin"), offset = tensor<uint64, []>(6205440)))];
            tensor<fp16, [480]> model_stages_2_blocks_5_attn_qkv_bias_to_fp16 = const()[name = tensor<string, []>("model_stages_2_blocks_5_attn_qkv_bias_to_fp16"), val = tensor<fp16, [480]>(BLOBFILE(path = tensor<string, []>("@model_path/weights/weight.bin"), offset = tensor<uint64, []>(6359104)))];
            tensor<fp16, [1, 196, 480]> linear_28_cast_fp16 = linear(bias = model_stages_2_blocks_5_attn_qkv_bias_to_fp16, weight = model_stages_2_blocks_5_attn_qkv_weight_to_fp16, x = input_217_cast_fp16)[name = tensor<string, []>("linear_28_cast_fp16")];
            tensor<int32, [4]> var_993 = const()[name = tensor<string, []>("op_993"), val = tensor<int32, [4]>([1, 196, 5, -1])];
            tensor<fp16, [1, 196, 5, 96]> var_994_cast_fp16 = reshape(shape = var_993, x = linear_28_cast_fp16)[name = tensor<string, []>("op_994_cast_fp16")];
            tensor<int32, [3]> var_995 = const()[name = tensor<string, []>("op_995"), val = tensor<int32, [3]>([32, 32, 32])];
            tensor<int32, []> var_996_axis_0 = const()[name = tensor<string, []>("op_996_axis_0"), val = tensor<int32, []>(3)];
            tensor<fp16, [1, 196, 5, 32]> var_996_cast_fp16_0, tensor<fp16, [1, 196, 5, 32]> var_996_cast_fp16_1, tensor<fp16, [1, 196, 5, 32]> var_996_cast_fp16_2 = split(axis = var_996_axis_0, split_sizes = var_995, x = var_994_cast_fp16)[name = tensor<string, []>("op_996_cast_fp16")];
            tensor<int32, [4]> var_1004 = const()[name = tensor<string, []>("op_1004"), val = tensor<int32, [4]>([0, 2, 1, 3])];
            tensor<fp16, []> mul_7_y_0_to_fp16 = const()[name = tensor<string, []>("mul_7_y_0_to_fp16"), val = tensor<fp16, []>(0x1.6ap-3)];
            tensor<fp16, [1, 196, 5, 32]> mul_7_cast_fp16 = mul(x = var_996_cast_fp16_0, y = mul_7_y_0_to_fp16)[name = tensor<string, []>("mul_7_cast_fp16")];
            tensor<bool, []> matmul_7_transpose_y_0 = const()[name = tensor<string, []>("matmul_7_transpose_y_0"), val = tensor<bool, []>(true)];
            tensor<bool, []> matmul_7_transpose_x_0 = const()[name = tensor<string, []>("matmul_7_transpose_x_0"), val = tensor<bool, []>(false)];
            tensor<int32, [4]> transpose_58_perm_0 = const()[name = tensor<string, []>("transpose_58_perm_0"), val = tensor<int32, [4]>([0, 2, -3, -1])];
            tensor<int32, [4]> transpose_59_perm_0 = const()[name = tensor<string, []>("transpose_59_perm_0"), val = tensor<int32, [4]>([0, 2, -3, -1])];
            tensor<fp16, [1, 5, 196, 32]> transpose_59 = transpose(perm = transpose_59_perm_0, x = var_996_cast_fp16_1)[name = tensor<string, []>("transpose_82")];
            tensor<fp16, [1, 5, 196, 32]> transpose_58 = transpose(perm = transpose_58_perm_0, x = mul_7_cast_fp16)[name = tensor<string, []>("transpose_83")];
            tensor<fp16, [1, 5, 196, 196]> matmul_7_cast_fp16 = matmul(transpose_x = matmul_7_transpose_x_0, transpose_y = matmul_7_transpose_y_0, x = transpose_58, y = transpose_59)[name = tensor<string, []>("matmul_7_cast_fp16")];
            tensor<fp16, [5, 196, 196]> attn_bias_15_to_fp16 = const()[name = tensor<string, []>("attn_bias_15_to_fp16"), val = tensor<fp16, [5, 196, 196]>(BLOBFILE(path = tensor<string, []>("@model_path/weights/weight.bin"), offset = tensor<uint64, []>(6360128)))];
            tensor<fp16, [1, 5, 196, 196]> add_7_cast_fp16 = add(x = matmul_7_cast_fp16, y = attn_bias_15_to_fp16)[name = tensor<string, []>("add_7_cast_fp16")];
            tensor<int32, []> softmax_7_axis_0 = const()[name = tensor<string, []>("softmax_7_axis_0"), val = tensor<int32, []>(-1)];
            tensor<fp16, [1, 5, 196, 196]> softmax_7_cast_fp16 = softmax(axis = softmax_7_axis_0, x = add_7_cast_fp16)[name = tensor<string, []>("softmax_7_cast_fp16")];
            tensor<bool, []> x_127_transpose_x_0 = const()[name = tensor<string, []>("x_127_transpose_x_0"), val = tensor<bool, []>(false)];
            tensor<bool, []> x_127_transpose_y_0 = const()[name = tensor<string, []>("x_127_transpose_y_0"), val = tensor<bool, []>(false)];
            tensor<fp16, [1, 5, 196, 32]> v_31_cast_fp16 = transpose(perm = var_1004, x = var_996_cast_fp16_2)[name = tensor<string, []>("transpose_84")];
            tensor<fp16, [1, 5, 196, 32]> x_127_cast_fp16 = matmul(transpose_x = x_127_transpose_x_0, transpose_y = x_127_transpose_y_0, x = softmax_7_cast_fp16, y = v_31_cast_fp16)[name = tensor<string, []>("x_127_cast_fp16")];
            tensor<int32, [4]> var_1007_perm_0 = const()[name = tensor<string, []>("op_1007_perm_0"), val = tensor<int32, [4]>([0, 2, 1, 3])];
            tensor<int32, [3]> var_1008 = const()[name = tensor<string, []>("op_1008"), val = tensor<int32, [3]>([1, 196, 160])];
            tensor<fp16, [1, 196, 5, 32]> var_1007_cast_fp16 = transpose(perm = var_1007_perm_0, x = x_127_cast_fp16)[name = tensor<string, []>("transpose_81")];
            tensor<fp16, [1, 196, 160]> input_219_cast_fp16 = reshape(shape = var_1008, x = var_1007_cast_fp16)[name = tensor<string, []>("input_219_cast_fp16")];
            tensor<fp16, [160, 160]> model_stages_2_blocks_5_attn_proj_weight_to_fp16 = const()[name = tensor<string, []>("model_stages_2_blocks_5_attn_proj_weight_to_fp16"), val = tensor<fp16, [160, 160]>(BLOBFILE(path = tensor<string, []>("@model_path/weights/weight.bin"), offset = tensor<uint64, []>(6744384)))];
            tensor<fp16, [160]> model_stages_2_blocks_5_attn_proj_bias_to_fp16 = const()[name = tensor<string, []>("model_stages_2_blocks_5_attn_proj_bias_to_fp16"), val = tensor<fp16, [160]>(BLOBFILE(path = tensor<string, []>("@model_path/weights/weight.bin"), offset = tensor<uint64, []>(6795648)))];
            tensor<fp16, [1, 196, 160]> linear_29_cast_fp16 = linear(bias = model_stages_2_blocks_5_attn_proj_bias_to_fp16, weight = model_stages_2_blocks_5_attn_proj_weight_to_fp16, x = input_219_cast_fp16)[name = tensor<string, []>("linear_29_cast_fp16")];
            tensor<int32, [4]> var_1013 = const()[name = tensor<string, []>("op_1013"), val = tensor<int32, [4]>([1, 14, 14, 160])];
            tensor<fp16, [1, 14, 14, 160]> x_131_cast_fp16 = reshape(shape = var_1013, x = linear_29_cast_fp16)[name = tensor<string, []>("x_131_cast_fp16")];
            tensor<fp16, [1, 14, 14, 160]> x_133_cast_fp16 = add(x = x_123_cast_fp16, y = x_131_cast_fp16)[name = tensor<string, []>("x_133_cast_fp16")];
            tensor<int32, [4]> var_1016 = const()[name = tensor<string, []>("op_1016"), val = tensor<int32, [4]>([0, 3, 1, 2])];
            tensor<string, []> input_223_pad_type_0 = const()[name = tensor<string, []>("input_223_pad_type_0"), val = tensor<string, []>("custom")];
            tensor<int32, [4]> input_223_pad_0 = const()[name = tensor<string, []>("input_223_pad_0"), val = tensor<int32, [4]>([1, 1, 1, 1])];
            tensor<int32, []> input_223_groups_0 = const()[name = tensor<string, []>("input_223_groups_0"), val = tensor<int32, []>(160)];
            tensor<int32, [2]> input_223_strides_0 = const()[name = tensor<string, []>("input_223_strides_0"), val = tensor<int32, [2]>([1, 1])];
            tensor<int32, [2]> input_223_dilations_0 = const()[name = tensor<string, []>("input_223_dilations_0"), val = tensor<int32, [2]>([1, 1])];
            tensor<fp16, [160, 1, 3, 3]> const_103_to_fp16 = const()[name = tensor<string, []>("const_103_to_fp16"), val = tensor<fp16, [160, 1, 3, 3]>(BLOBFILE(path = tensor<string, []>("@model_path/weights/weight.bin"), offset = tensor<uint64, []>(6796032)))];
            tensor<fp16, [160]> const_104_to_fp16 = const()[name = tensor<string, []>("const_104_to_fp16"), val = tensor<fp16, [160]>(BLOBFILE(path = tensor<string, []>("@model_path/weights/weight.bin"), offset = tensor<uint64, []>(6798976)))];
            tensor<fp16, [1, 160, 14, 14]> input_221_cast_fp16 = transpose(perm = var_1016, x = x_133_cast_fp16)[name = tensor<string, []>("transpose_80")];
            tensor<fp16, [1, 160, 14, 14]> x_135_cast_fp16 = conv(bias = const_104_to_fp16, dilations = input_223_dilations_0, groups = input_223_groups_0, pad = input_223_pad_0, pad_type = input_223_pad_type_0, strides = input_223_strides_0, weight = const_103_to_fp16, x = input_221_cast_fp16)[name = tensor<string, []>("x_135_cast_fp16")];
            tensor<int32, [3]> var_1031 = const()[name = tensor<string, []>("op_1031"), val = tensor<int32, [3]>([1, 160, 196])];
            tensor<fp16, [1, 160, 196]> var_1032_cast_fp16 = reshape(shape = var_1031, x = x_135_cast_fp16)[name = tensor<string, []>("op_1032_cast_fp16")];
            tensor<int32, [3]> input_225_perm_0 = const()[name = tensor<string, []>("input_225_perm_0"), val = tensor<int32, [3]>([0, 2, 1])];
            tensor<int32, [1]> input_227_axes_0 = const()[name = tensor<string, []>("input_227_axes_0"), val = tensor<int32, [1]>([-1])];
            tensor<fp16, [160]> model_stages_2_blocks_5_mlp_norm_weight_to_fp16 = const()[name = tensor<string, []>("model_stages_2_blocks_5_mlp_norm_weight_to_fp16"), val = tensor<fp16, [160]>(BLOBFILE(path = tensor<string, []>("@model_path/weights/weight.bin"), offset = tensor<uint64, []>(6799360)))];
            tensor<fp16, [160]> model_stages_2_blocks_5_mlp_norm_bias_to_fp16 = const()[name = tensor<string, []>("model_stages_2_blocks_5_mlp_norm_bias_to_fp16"), val = tensor<fp16, [160]>(BLOBFILE(path = tensor<string, []>("@model_path/weights/weight.bin"), offset = tensor<uint64, []>(6799744)))];
            tensor<fp16, [1, 196, 160]> input_225_cast_fp16 = transpose(perm = input_225_perm_0, x = var_1032_cast_fp16)[name = tensor<string, []>("transpose_79")];
            tensor<fp16, [1, 196, 160]> input_227_cast_fp16 = layer_norm(axes = input_227_axes_0, beta = model_stages_2_blocks_5_mlp_norm_bias_to_fp16, epsilon = var_62_to_fp16, gamma = model_stages_2_blocks_5_mlp_norm_weight_to_fp16, x = input_225_cast_fp16)[name = tensor<string, []>("input_227_cast_fp16")];
            tensor<fp16, [640, 160]> model_stages_2_blocks_5_mlp_fc1_weight_to_fp16 = const()[name = tensor<string, []>("model_stages_2_blocks_5_mlp_fc1_weight_to_fp16"), val = tensor<fp16, [640, 160]>(BLOBFILE(path = tensor<string, []>("@model_path/weights/weight.bin"), offset = tensor<uint64, []>(6800128)))];
            tensor<fp16, [640]> model_stages_2_blocks_5_mlp_fc1_bias_to_fp16 = const()[name = tensor<string, []>("model_stages_2_blocks_5_mlp_fc1_bias_to_fp16"), val = tensor<fp16, [640]>(BLOBFILE(path = tensor<string, []>("@model_path/weights/weight.bin"), offset = tensor<uint64, []>(7004992)))];
            tensor<fp16, [1, 196, 640]> linear_30_cast_fp16 = linear(bias = model_stages_2_blocks_5_mlp_fc1_bias_to_fp16, weight = model_stages_2_blocks_5_mlp_fc1_weight_to_fp16, x = input_227_cast_fp16)[name = tensor<string, []>("linear_30_cast_fp16")];
            tensor<string, []> input_231_mode_0 = const()[name = tensor<string, []>("input_231_mode_0"), val = tensor<string, []>("EXACT")];
            tensor<fp16, [1, 196, 640]> input_231_cast_fp16 = gelu(mode = input_231_mode_0, x = linear_30_cast_fp16)[name = tensor<string, []>("input_231_cast_fp16")];
            tensor<fp16, [160, 640]> model_stages_2_blocks_5_mlp_fc2_weight_to_fp16 = const()[name = tensor<string, []>("model_stages_2_blocks_5_mlp_fc2_weight_to_fp16"), val = tensor<fp16, [160, 640]>(BLOBFILE(path = tensor<string, []>("@model_path/weights/weight.bin"), offset = tensor<uint64, []>(7006336)))];
            tensor<fp16, [160]> model_stages_2_blocks_5_mlp_fc2_bias_to_fp16 = const()[name = tensor<string, []>("model_stages_2_blocks_5_mlp_fc2_bias_to_fp16"), val = tensor<fp16, [160]>(BLOBFILE(path = tensor<string, []>("@model_path/weights/weight.bin"), offset = tensor<uint64, []>(7211200)))];
            tensor<fp16, [1, 196, 160]> linear_31_cast_fp16 = linear(bias = model_stages_2_blocks_5_mlp_fc2_bias_to_fp16, weight = model_stages_2_blocks_5_mlp_fc2_weight_to_fp16, x = input_231_cast_fp16)[name = tensor<string, []>("linear_31_cast_fp16")];
            tensor<fp16, [1, 196, 160]> x_137_cast_fp16 = add(x = input_225_cast_fp16, y = linear_31_cast_fp16)[name = tensor<string, []>("x_137_cast_fp16")];
            tensor<int32, [4]> var_1051 = const()[name = tensor<string, []>("op_1051"), val = tensor<int32, [4]>([1, 14, 14, 160])];
            tensor<fp16, [1, 14, 14, 160]> x_139_cast_fp16 = reshape(shape = var_1051, x = x_137_cast_fp16)[name = tensor<string, []>("x_139_cast_fp16")];
            tensor<int32, [4]> var_1053 = const()[name = tensor<string, []>("op_1053"), val = tensor<int32, [4]>([0, 3, 1, 2])];
            tensor<string, []> input_239_pad_type_0 = const()[name = tensor<string, []>("input_239_pad_type_0"), val = tensor<string, []>("valid")];
            tensor<int32, [2]> input_239_strides_0 = const()[name = tensor<string, []>("input_239_strides_0"), val = tensor<int32, [2]>([1, 1])];
            tensor<int32, [4]> input_239_pad_0 = const()[name = tensor<string, []>("input_239_pad_0"), val = tensor<int32, [4]>([0, 0, 0, 0])];
            tensor<int32, [2]> input_239_dilations_0 = const()[name = tensor<string, []>("input_239_dilations_0"), val = tensor<int32, [2]>([1, 1])];
            tensor<int32, []> input_239_groups_0 = const()[name = tensor<string, []>("input_239_groups_0"), val = tensor<int32, []>(1)];
            tensor<fp16, [320, 160, 1, 1]> const_105_to_fp16 = const()[name = tensor<string, []>("const_105_to_fp16"), val = tensor<fp16, [320, 160, 1, 1]>(BLOBFILE(path = tensor<string, []>("@model_path/weights/weight.bin"), offset = tensor<uint64, []>(7211584)))];
            tensor<fp16, [320]> const_106_to_fp16 = const()[name = tensor<string, []>("const_106_to_fp16"), val = tensor<fp16, [320]>(BLOBFILE(path = tensor<string, []>("@model_path/weights/weight.bin"), offset = tensor<uint64, []>(7314048)))];
            tensor<fp16, [1, 160, 14, 14]> input_237_cast_fp16 = transpose(perm = var_1053, x = x_139_cast_fp16)[name = tensor<string, []>("transpose_78")];
            tensor<fp16, [1, 320, 14, 14]> input_241_cast_fp16 = conv(bias = const_106_to_fp16, dilations = input_239_dilations_0, groups = input_239_groups_0, pad = input_239_pad_0, pad_type = input_239_pad_type_0, strides = input_239_strides_0, weight = const_105_to_fp16, x = input_237_cast_fp16)[name = tensor<string, []>("input_241_cast_fp16")];
            tensor<string, []> input_243_mode_0 = const()[name = tensor<string, []>("input_243_mode_0"), val = tensor<string, []>("EXACT")];
            tensor<fp16, [1, 320, 14, 14]> input_243_cast_fp16 = gelu(mode = input_243_mode_0, x = input_241_cast_fp16)[name = tensor<string, []>("input_243_cast_fp16")];
            tensor<string, []> input_245_pad_type_0 = const()[name = tensor<string, []>("input_245_pad_type_0"), val = tensor<string, []>("custom")];
            tensor<int32, [4]> input_245_pad_0 = const()[name = tensor<string, []>("input_245_pad_0"), val = tensor<int32, [4]>([1, 1, 1, 1])];
            tensor<int32, [2]> input_245_strides_0 = const()[name = tensor<string, []>("input_245_strides_0"), val = tensor<int32, [2]>([2, 2])];
            tensor<int32, []> input_245_groups_0 = const()[name = tensor<string, []>("input_245_groups_0"), val = tensor<int32, []>(320)];
            tensor<int32, [2]> input_245_dilations_0 = const()[name = tensor<string, []>("input_245_dilations_0"), val = tensor<int32, [2]>([1, 1])];
            tensor<fp16, [320, 1, 3, 3]> const_107_to_fp16 = const()[name = tensor<string, []>("const_107_to_fp16"), val = tensor<fp16, [320, 1, 3, 3]>(BLOBFILE(path = tensor<string, []>("@model_path/weights/weight.bin"), offset = tensor<uint64, []>(7314752)))];
            tensor<fp16, [320]> const_108_to_fp16 = const()[name = tensor<string, []>("const_108_to_fp16"), val = tensor<fp16, [320]>(BLOBFILE(path = tensor<string, []>("@model_path/weights/weight.bin"), offset = tensor<uint64, []>(7320576)))];
            tensor<fp16, [1, 320, 7, 7]> input_247_cast_fp16 = conv(bias = const_108_to_fp16, dilations = input_245_dilations_0, groups = input_245_groups_0, pad = input_245_pad_0, pad_type = input_245_pad_type_0, strides = input_245_strides_0, weight = const_107_to_fp16, x = input_243_cast_fp16)[name = tensor<string, []>("input_247_cast_fp16")];
            tensor<string, []> input_249_mode_0 = const()[name = tensor<string, []>("input_249_mode_0"), val = tensor<string, []>("EXACT")];
            tensor<fp16, [1, 320, 7, 7]> input_249_cast_fp16 = gelu(mode = input_249_mode_0, x = input_247_cast_fp16)[name = tensor<string, []>("input_249_cast_fp16")];
            tensor<string, []> input_251_pad_type_0 = const()[name = tensor<string, []>("input_251_pad_type_0"), val = tensor<string, []>("valid")];
            tensor<int32, [2]> input_251_strides_0 = const()[name = tensor<string, []>("input_251_strides_0"), val = tensor<int32, [2]>([1, 1])];
            tensor<int32, [4]> input_251_pad_0 = const()[name = tensor<string, []>("input_251_pad_0"), val = tensor<int32, [4]>([0, 0, 0, 0])];
            tensor<int32, [2]> input_251_dilations_0 = const()[name = tensor<string, []>("input_251_dilations_0"), val = tensor<int32, [2]>([1, 1])];
            tensor<int32, []> input_251_groups_0 = const()[name = tensor<string, []>("input_251_groups_0"), val = tensor<int32, []>(1)];
            tensor<fp16, [320, 320, 1, 1]> const_109_to_fp16 = const()[name = tensor<string, []>("const_109_to_fp16"), val = tensor<fp16, [320, 320, 1, 1]>(BLOBFILE(path = tensor<string, []>("@model_path/weights/weight.bin"), offset = tensor<uint64, []>(7321280)))];
            tensor<fp16, [320]> const_110_to_fp16 = const()[name = tensor<string, []>("const_110_to_fp16"), val = tensor<fp16, [320]>(BLOBFILE(path = tensor<string, []>("@model_path/weights/weight.bin"), offset = tensor<uint64, []>(7526144)))];
            tensor<fp16, [1, 320, 7, 7]> x_141_cast_fp16 = conv(bias = const_110_to_fp16, dilations = input_251_dilations_0, groups = input_251_groups_0, pad = input_251_pad_0, pad_type = input_251_pad_type_0, strides = input_251_strides_0, weight = const_109_to_fp16, x = input_249_cast_fp16)[name = tensor<string, []>("x_141_cast_fp16")];
            tensor<int32, [4]> var_1101 = const()[name = tensor<string, []>("op_1101"), val = tensor<int32, [4]>([0, 2, 3, 1])];
            tensor<int32, [3]> var_1117 = const()[name = tensor<string, []>("op_1117"), val = tensor<int32, [3]>([1, 49, 320])];
            tensor<fp16, [1, 7, 7, 320]> x_143_cast_fp16 = transpose(perm = var_1101, x = x_141_cast_fp16)[name = tensor<string, []>("transpose_77")];
            tensor<fp16, [1, 49, 320]> x_145_cast_fp16 = reshape(shape = var_1117, x = x_143_cast_fp16)[name = tensor<string, []>("x_145_cast_fp16")];
            tensor<int32, [1]> input_253_axes_0 = const()[name = tensor<string, []>("input_253_axes_0"), val = tensor<int32, [1]>([-1])];
            tensor<fp16, [320]> model_stages_3_blocks_0_attn_norm_weight_to_fp16 = const()[name = tensor<string, []>("model_stages_3_blocks_0_attn_norm_weight_to_fp16"), val = tensor<fp16, [320]>(BLOBFILE(path = tensor<string, []>("@model_path/weights/weight.bin"), offset = tensor<uint64, []>(7526848)))];
            tensor<fp16, [320]> model_stages_3_blocks_0_attn_norm_bias_to_fp16 = const()[name = tensor<string, []>("model_stages_3_blocks_0_attn_norm_bias_to_fp16"), val = tensor<fp16, [320]>(BLOBFILE(path = tensor<string, []>("@model_path/weights/weight.bin"), offset = tensor<uint64, []>(7527552)))];
            tensor<fp16, [1, 49, 320]> input_253_cast_fp16 = layer_norm(axes = input_253_axes_0, beta = model_stages_3_blocks_0_attn_norm_bias_to_fp16, epsilon = var_62_to_fp16, gamma = model_stages_3_blocks_0_attn_norm_weight_to_fp16, x = x_145_cast_fp16)[name = tensor<string, []>("input_253_cast_fp16")];
            tensor<fp16, [960, 320]> model_stages_3_blocks_0_attn_qkv_weight_to_fp16 = const()[name = tensor<string, []>("model_stages_3_blocks_0_attn_qkv_weight_to_fp16"), val = tensor<fp16, [960, 320]>(BLOBFILE(path = tensor<string, []>("@model_path/weights/weight.bin"), offset = tensor<uint64, []>(7528256)))];
            tensor<fp16, [960]> model_stages_3_blocks_0_attn_qkv_bias_to_fp16 = const()[name = tensor<string, []>("model_stages_3_blocks_0_attn_qkv_bias_to_fp16"), val = tensor<fp16, [960]>(BLOBFILE(path = tensor<string, []>("@model_path/weights/weight.bin"), offset = tensor<uint64, []>(8142720)))];
            tensor<fp16, [1, 49, 960]> linear_32_cast_fp16 = linear(bias = model_stages_3_blocks_0_attn_qkv_bias_to_fp16, weight = model_stages_3_blocks_0_attn_qkv_weight_to_fp16, x = input_253_cast_fp16)[name = tensor<string, []>("linear_32_cast_fp16")];
            tensor<int32, [4]> var_1136 = const()[name = tensor<string, []>("op_1136"), val = tensor<int32, [4]>([1, 49, 10, -1])];
            tensor<fp16, [1, 49, 10, 96]> var_1137_cast_fp16 = reshape(shape = var_1136, x = linear_32_cast_fp16)[name = tensor<string, []>("op_1137_cast_fp16")];
            tensor<int32, [3]> var_1138 = const()[name = tensor<string, []>("op_1138"), val = tensor<int32, [3]>([32, 32, 32])];
            tensor<int32, []> var_1139_axis_0 = const()[name = tensor<string, []>("op_1139_axis_0"), val = tensor<int32, []>(3)];
            tensor<fp16, [1, 49, 10, 32]> var_1139_cast_fp16_0, tensor<fp16, [1, 49, 10, 32]> var_1139_cast_fp16_1, tensor<fp16, [1, 49, 10, 32]> var_1139_cast_fp16_2 = split(axis = var_1139_axis_0, split_sizes = var_1138, x = var_1137_cast_fp16)[name = tensor<string, []>("op_1139_cast_fp16")];
            tensor<int32, [4]> var_1147 = const()[name = tensor<string, []>("op_1147"), val = tensor<int32, [4]>([0, 2, 1, 3])];
            tensor<fp16, []> mul_8_y_0_to_fp16 = const()[name = tensor<string, []>("mul_8_y_0_to_fp16"), val = tensor<fp16, []>(0x1.6ap-3)];
            tensor<fp16, [1, 49, 10, 32]> mul_8_cast_fp16 = mul(x = var_1139_cast_fp16_0, y = mul_8_y_0_to_fp16)[name = tensor<string, []>("mul_8_cast_fp16")];
            tensor<bool, []> matmul_8_transpose_y_0 = const()[name = tensor<string, []>("matmul_8_transpose_y_0"), val = tensor<bool, []>(true)];
            tensor<bool, []> matmul_8_transpose_x_0 = const()[name = tensor<string, []>("matmul_8_transpose_x_0"), val = tensor<bool, []>(false)];
            tensor<int32, [4]> transpose_60_perm_0 = const()[name = tensor<string, []>("transpose_60_perm_0"), val = tensor<int32, [4]>([0, 2, -3, -1])];
            tensor<int32, [4]> transpose_61_perm_0 = const()[name = tensor<string, []>("transpose_61_perm_0"), val = tensor<int32, [4]>([0, 2, -3, -1])];
            tensor<fp16, [1, 10, 49, 32]> transpose_61 = transpose(perm = transpose_61_perm_0, x = var_1139_cast_fp16_1)[name = tensor<string, []>("transpose_74")];
            tensor<fp16, [1, 10, 49, 32]> transpose_60 = transpose(perm = transpose_60_perm_0, x = mul_8_cast_fp16)[name = tensor<string, []>("transpose_75")];
            tensor<fp16, [1, 10, 49, 49]> matmul_8_cast_fp16 = matmul(transpose_x = matmul_8_transpose_x_0, transpose_y = matmul_8_transpose_y_0, x = transpose_60, y = transpose_61)[name = tensor<string, []>("matmul_8_cast_fp16")];
            tensor<fp16, [10, 49, 49]> attn_bias_17_to_fp16 = const()[name = tensor<string, []>("attn_bias_17_to_fp16"), val = tensor<fp16, [10, 49, 49]>(BLOBFILE(path = tensor<string, []>("@model_path/weights/weight.bin"), offset = tensor<uint64, []>(8144704)))];
            tensor<fp16, [1, 10, 49, 49]> add_8_cast_fp16 = add(x = matmul_8_cast_fp16, y = attn_bias_17_to_fp16)[name = tensor<string, []>("add_8_cast_fp16")];
            tensor<int32, []> softmax_8_axis_0 = const()[name = tensor<string, []>("softmax_8_axis_0"), val = tensor<int32, []>(-1)];
            tensor<fp16, [1, 10, 49, 49]> softmax_8_cast_fp16 = softmax(axis = softmax_8_axis_0, x = add_8_cast_fp16)[name = tensor<string, []>("softmax_8_cast_fp16")];
            tensor<bool, []> x_147_transpose_x_0 = const()[name = tensor<string, []>("x_147_transpose_x_0"), val = tensor<bool, []>(false)];
            tensor<bool, []> x_147_transpose_y_0 = const()[name = tensor<string, []>("x_147_transpose_y_0"), val = tensor<bool, []>(false)];
            tensor<fp16, [1, 10, 49, 32]> v_35_cast_fp16 = transpose(perm = var_1147, x = var_1139_cast_fp16_2)[name = tensor<string, []>("transpose_76")];
            tensor<fp16, [1, 10, 49, 32]> x_147_cast_fp16 = matmul(transpose_x = x_147_transpose_x_0, transpose_y = x_147_transpose_y_0, x = softmax_8_cast_fp16, y = v_35_cast_fp16)[name = tensor<string, []>("x_147_cast_fp16")];
            tensor<int32, [4]> var_1150_perm_0 = const()[name = tensor<string, []>("op_1150_perm_0"), val = tensor<int32, [4]>([0, 2, 1, 3])];
            tensor<int32, [3]> var_1151 = const()[name = tensor<string, []>("op_1151"), val = tensor<int32, [3]>([1, 49, 320])];
            tensor<fp16, [1, 49, 10, 32]> var_1150_cast_fp16 = transpose(perm = var_1150_perm_0, x = x_147_cast_fp16)[name = tensor<string, []>("transpose_73")];
            tensor<fp16, [1, 49, 320]> input_255_cast_fp16 = reshape(shape = var_1151, x = var_1150_cast_fp16)[name = tensor<string, []>("input_255_cast_fp16")];
            tensor<fp16, [320, 320]> model_stages_3_blocks_0_attn_proj_weight_to_fp16 = const()[name = tensor<string, []>("model_stages_3_blocks_0_attn_proj_weight_to_fp16"), val = tensor<fp16, [320, 320]>(BLOBFILE(path = tensor<string, []>("@model_path/weights/weight.bin"), offset = tensor<uint64, []>(8192832)))];
            tensor<fp16, [320]> model_stages_3_blocks_0_attn_proj_bias_to_fp16 = const()[name = tensor<string, []>("model_stages_3_blocks_0_attn_proj_bias_to_fp16"), val = tensor<fp16, [320]>(BLOBFILE(path = tensor<string, []>("@model_path/weights/weight.bin"), offset = tensor<uint64, []>(8397696)))];
            tensor<fp16, [1, 49, 320]> linear_33_cast_fp16 = linear(bias = model_stages_3_blocks_0_attn_proj_bias_to_fp16, weight = model_stages_3_blocks_0_attn_proj_weight_to_fp16, x = input_255_cast_fp16)[name = tensor<string, []>("linear_33_cast_fp16")];
            tensor<int32, [4]> var_1156 = const()[name = tensor<string, []>("op_1156"), val = tensor<int32, [4]>([1, 7, 7, 320])];
            tensor<fp16, [1, 7, 7, 320]> x_151_cast_fp16 = reshape(shape = var_1156, x = linear_33_cast_fp16)[name = tensor<string, []>("x_151_cast_fp16")];
            tensor<fp16, [1, 7, 7, 320]> x_153_cast_fp16 = add(x = x_143_cast_fp16, y = x_151_cast_fp16)[name = tensor<string, []>("x_153_cast_fp16")];
            tensor<int32, [4]> var_1159 = const()[name = tensor<string, []>("op_1159"), val = tensor<int32, [4]>([0, 3, 1, 2])];
            tensor<string, []> input_259_pad_type_0 = const()[name = tensor<string, []>("input_259_pad_type_0"), val = tensor<string, []>("custom")];
            tensor<int32, [4]> input_259_pad_0 = const()[name = tensor<string, []>("input_259_pad_0"), val = tensor<int32, [4]>([1, 1, 1, 1])];
            tensor<int32, []> input_259_groups_0 = const()[name = tensor<string, []>("input_259_groups_0"), val = tensor<int32, []>(320)];
            tensor<int32, [2]> input_259_strides_0 = const()[name = tensor<string, []>("input_259_strides_0"), val = tensor<int32, [2]>([1, 1])];
            tensor<int32, [2]> input_259_dilations_0 = const()[name = tensor<string, []>("input_259_dilations_0"), val = tensor<int32, [2]>([1, 1])];
            tensor<fp16, [320, 1, 3, 3]> const_111_to_fp16 = const()[name = tensor<string, []>("const_111_to_fp16"), val = tensor<fp16, [320, 1, 3, 3]>(BLOBFILE(path = tensor<string, []>("@model_path/weights/weight.bin"), offset = tensor<uint64, []>(8398400)))];
            tensor<fp16, [320]> const_112_to_fp16 = const()[name = tensor<string, []>("const_112_to_fp16"), val = tensor<fp16, [320]>(BLOBFILE(path = tensor<string, []>("@model_path/weights/weight.bin"), offset = tensor<uint64, []>(8404224)))];
            tensor<fp16, [1, 320, 7, 7]> input_257_cast_fp16 = transpose(perm = var_1159, x = x_153_cast_fp16)[name = tensor<string, []>("transpose_72")];
            tensor<fp16, [1, 320, 7, 7]> x_155_cast_fp16 = conv(bias = const_112_to_fp16, dilations = input_259_dilations_0, groups = input_259_groups_0, pad = input_259_pad_0, pad_type = input_259_pad_type_0, strides = input_259_strides_0, weight = const_111_to_fp16, x = input_257_cast_fp16)[name = tensor<string, []>("x_155_cast_fp16")];
            tensor<int32, [3]> var_1174 = const()[name = tensor<string, []>("op_1174"), val = tensor<int32, [3]>([1, 320, 49])];
            tensor<fp16, [1, 320, 49]> var_1175_cast_fp16 = reshape(shape = var_1174, x = x_155_cast_fp16)[name = tensor<string, []>("op_1175_cast_fp16")];
            tensor<int32, [3]> input_261_perm_0 = const()[name = tensor<string, []>("input_261_perm_0"), val = tensor<int32, [3]>([0, 2, 1])];
            tensor<int32, [1]> input_263_axes_0 = const()[name = tensor<string, []>("input_263_axes_0"), val = tensor<int32, [1]>([-1])];
            tensor<fp16, [320]> model_stages_3_blocks_0_mlp_norm_weight_to_fp16 = const()[name = tensor<string, []>("model_stages_3_blocks_0_mlp_norm_weight_to_fp16"), val = tensor<fp16, [320]>(BLOBFILE(path = tensor<string, []>("@model_path/weights/weight.bin"), offset = tensor<uint64, []>(8404928)))];
            tensor<fp16, [320]> model_stages_3_blocks_0_mlp_norm_bias_to_fp16 = const()[name = tensor<string, []>("model_stages_3_blocks_0_mlp_norm_bias_to_fp16"), val = tensor<fp16, [320]>(BLOBFILE(path = tensor<string, []>("@model_path/weights/weight.bin"), offset = tensor<uint64, []>(8405632)))];
            tensor<fp16, [1, 49, 320]> input_261_cast_fp16 = transpose(perm = input_261_perm_0, x = var_1175_cast_fp16)[name = tensor<string, []>("transpose_71")];
            tensor<fp16, [1, 49, 320]> input_263_cast_fp16 = layer_norm(axes = input_263_axes_0, beta = model_stages_3_blocks_0_mlp_norm_bias_to_fp16, epsilon = var_62_to_fp16, gamma = model_stages_3_blocks_0_mlp_norm_weight_to_fp16, x = input_261_cast_fp16)[name = tensor<string, []>("input_263_cast_fp16")];
            tensor<fp16, [1280, 320]> model_stages_3_blocks_0_mlp_fc1_weight_to_fp16 = const()[name = tensor<string, []>("model_stages_3_blocks_0_mlp_fc1_weight_to_fp16"), val = tensor<fp16, [1280, 320]>(BLOBFILE(path = tensor<string, []>("@model_path/weights/weight.bin"), offset = tensor<uint64, []>(8406336)))];
            tensor<fp16, [1280]> model_stages_3_blocks_0_mlp_fc1_bias_to_fp16 = const()[name = tensor<string, []>("model_stages_3_blocks_0_mlp_fc1_bias_to_fp16"), val = tensor<fp16, [1280]>(BLOBFILE(path = tensor<string, []>("@model_path/weights/weight.bin"), offset = tensor<uint64, []>(9225600)))];
            tensor<fp16, [1, 49, 1280]> linear_34_cast_fp16 = linear(bias = model_stages_3_blocks_0_mlp_fc1_bias_to_fp16, weight = model_stages_3_blocks_0_mlp_fc1_weight_to_fp16, x = input_263_cast_fp16)[name = tensor<string, []>("linear_34_cast_fp16")];
            tensor<string, []> input_267_mode_0 = const()[name = tensor<string, []>("input_267_mode_0"), val = tensor<string, []>("EXACT")];
            tensor<fp16, [1, 49, 1280]> input_267_cast_fp16 = gelu(mode = input_267_mode_0, x = linear_34_cast_fp16)[name = tensor<string, []>("input_267_cast_fp16")];
            tensor<fp16, [320, 1280]> model_stages_3_blocks_0_mlp_fc2_weight_to_fp16 = const()[name = tensor<string, []>("model_stages_3_blocks_0_mlp_fc2_weight_to_fp16"), val = tensor<fp16, [320, 1280]>(BLOBFILE(path = tensor<string, []>("@model_path/weights/weight.bin"), offset = tensor<uint64, []>(9228224)))];
            tensor<fp16, [320]> model_stages_3_blocks_0_mlp_fc2_bias_to_fp16 = const()[name = tensor<string, []>("model_stages_3_blocks_0_mlp_fc2_bias_to_fp16"), val = tensor<fp16, [320]>(BLOBFILE(path = tensor<string, []>("@model_path/weights/weight.bin"), offset = tensor<uint64, []>(10047488)))];
            tensor<fp16, [1, 49, 320]> linear_35_cast_fp16 = linear(bias = model_stages_3_blocks_0_mlp_fc2_bias_to_fp16, weight = model_stages_3_blocks_0_mlp_fc2_weight_to_fp16, x = input_267_cast_fp16)[name = tensor<string, []>("linear_35_cast_fp16")];
            tensor<fp16, [1, 49, 320]> x_157_cast_fp16 = add(x = input_261_cast_fp16, y = linear_35_cast_fp16)[name = tensor<string, []>("x_157_cast_fp16")];
            tensor<int32, [4]> var_1194 = const()[name = tensor<string, []>("op_1194"), val = tensor<int32, [4]>([1, 7, 7, 320])];
            tensor<fp16, [1, 7, 7, 320]> x_159_cast_fp16 = reshape(shape = var_1194, x = x_157_cast_fp16)[name = tensor<string, []>("x_159_cast_fp16")];
            tensor<int32, [3]> var_1208 = const()[name = tensor<string, []>("op_1208"), val = tensor<int32, [3]>([1, 49, 320])];
            tensor<fp16, [1, 49, 320]> x_161_cast_fp16 = reshape(shape = var_1208, x = x_159_cast_fp16)[name = tensor<string, []>("x_161_cast_fp16")];
            tensor<int32, [1]> input_273_axes_0 = const()[name = tensor<string, []>("input_273_axes_0"), val = tensor<int32, [1]>([-1])];
            tensor<fp16, [320]> model_stages_3_blocks_1_attn_norm_weight_to_fp16 = const()[name = tensor<string, []>("model_stages_3_blocks_1_attn_norm_weight_to_fp16"), val = tensor<fp16, [320]>(BLOBFILE(path = tensor<string, []>("@model_path/weights/weight.bin"), offset = tensor<uint64, []>(10048192)))];
            tensor<fp16, [320]> model_stages_3_blocks_1_attn_norm_bias_to_fp16 = const()[name = tensor<string, []>("model_stages_3_blocks_1_attn_norm_bias_to_fp16"), val = tensor<fp16, [320]>(BLOBFILE(path = tensor<string, []>("@model_path/weights/weight.bin"), offset = tensor<uint64, []>(10048896)))];
            tensor<fp16, [1, 49, 320]> input_273_cast_fp16 = layer_norm(axes = input_273_axes_0, beta = model_stages_3_blocks_1_attn_norm_bias_to_fp16, epsilon = var_62_to_fp16, gamma = model_stages_3_blocks_1_attn_norm_weight_to_fp16, x = x_161_cast_fp16)[name = tensor<string, []>("input_273_cast_fp16")];
            tensor<fp16, [960, 320]> model_stages_3_blocks_1_attn_qkv_weight_to_fp16 = const()[name = tensor<string, []>("model_stages_3_blocks_1_attn_qkv_weight_to_fp16"), val = tensor<fp16, [960, 320]>(BLOBFILE(path = tensor<string, []>("@model_path/weights/weight.bin"), offset = tensor<uint64, []>(10049600)))];
            tensor<fp16, [960]> model_stages_3_blocks_1_attn_qkv_bias_to_fp16 = const()[name = tensor<string, []>("model_stages_3_blocks_1_attn_qkv_bias_to_fp16"), val = tensor<fp16, [960]>(BLOBFILE(path = tensor<string, []>("@model_path/weights/weight.bin"), offset = tensor<uint64, []>(10664064)))];
            tensor<fp16, [1, 49, 960]> linear_36_cast_fp16 = linear(bias = model_stages_3_blocks_1_attn_qkv_bias_to_fp16, weight = model_stages_3_blocks_1_attn_qkv_weight_to_fp16, x = input_273_cast_fp16)[name = tensor<string, []>("linear_36_cast_fp16")];
            tensor<int32, [4]> var_1227 = const()[name = tensor<string, []>("op_1227"), val = tensor<int32, [4]>([1, 49, 10, -1])];
            tensor<fp16, [1, 49, 10, 96]> var_1228_cast_fp16 = reshape(shape = var_1227, x = linear_36_cast_fp16)[name = tensor<string, []>("op_1228_cast_fp16")];
            tensor<int32, [3]> var_1229 = const()[name = tensor<string, []>("op_1229"), val = tensor<int32, [3]>([32, 32, 32])];
            tensor<int32, []> var_1230_axis_0 = const()[name = tensor<string, []>("op_1230_axis_0"), val = tensor<int32, []>(3)];
            tensor<fp16, [1, 49, 10, 32]> var_1230_cast_fp16_0, tensor<fp16, [1, 49, 10, 32]> var_1230_cast_fp16_1, tensor<fp16, [1, 49, 10, 32]> var_1230_cast_fp16_2 = split(axis = var_1230_axis_0, split_sizes = var_1229, x = var_1228_cast_fp16)[name = tensor<string, []>("op_1230_cast_fp16")];
            tensor<int32, [4]> var_1238 = const()[name = tensor<string, []>("op_1238"), val = tensor<int32, [4]>([0, 2, 1, 3])];
            tensor<fp16, []> mul_9_y_0_to_fp16 = const()[name = tensor<string, []>("mul_9_y_0_to_fp16"), val = tensor<fp16, []>(0x1.6ap-3)];
            tensor<fp16, [1, 49, 10, 32]> mul_9_cast_fp16 = mul(x = var_1230_cast_fp16_0, y = mul_9_y_0_to_fp16)[name = tensor<string, []>("mul_9_cast_fp16")];
            tensor<bool, []> matmul_9_transpose_y_0 = const()[name = tensor<string, []>("matmul_9_transpose_y_0"), val = tensor<bool, []>(true)];
            tensor<bool, []> matmul_9_transpose_x_0 = const()[name = tensor<string, []>("matmul_9_transpose_x_0"), val = tensor<bool, []>(false)];
            tensor<int32, [4]> transpose_62_perm_0 = const()[name = tensor<string, []>("transpose_62_perm_0"), val = tensor<int32, [4]>([0, 2, -3, -1])];
            tensor<int32, [4]> transpose_63_perm_0 = const()[name = tensor<string, []>("transpose_63_perm_0"), val = tensor<int32, [4]>([0, 2, -3, -1])];
            tensor<fp16, [1, 10, 49, 32]> transpose_63 = transpose(perm = transpose_63_perm_0, x = var_1230_cast_fp16_1)[name = tensor<string, []>("transpose_68")];
            tensor<fp16, [1, 10, 49, 32]> transpose_62 = transpose(perm = transpose_62_perm_0, x = mul_9_cast_fp16)[name = tensor<string, []>("transpose_69")];
            tensor<fp16, [1, 10, 49, 49]> matmul_9_cast_fp16 = matmul(transpose_x = matmul_9_transpose_x_0, transpose_y = matmul_9_transpose_y_0, x = transpose_62, y = transpose_63)[name = tensor<string, []>("matmul_9_cast_fp16")];
            tensor<fp16, [10, 49, 49]> attn_bias_to_fp16 = const()[name = tensor<string, []>("attn_bias_to_fp16"), val = tensor<fp16, [10, 49, 49]>(BLOBFILE(path = tensor<string, []>("@model_path/weights/weight.bin"), offset = tensor<uint64, []>(10666048)))];
            tensor<fp16, [1, 10, 49, 49]> add_9_cast_fp16 = add(x = matmul_9_cast_fp16, y = attn_bias_to_fp16)[name = tensor<string, []>("add_9_cast_fp16")];
            tensor<int32, []> softmax_9_axis_0 = const()[name = tensor<string, []>("softmax_9_axis_0"), val = tensor<int32, []>(-1)];
            tensor<fp16, [1, 10, 49, 49]> softmax_9_cast_fp16 = softmax(axis = softmax_9_axis_0, x = add_9_cast_fp16)[name = tensor<string, []>("softmax_9_cast_fp16")];
            tensor<bool, []> x_163_transpose_x_0 = const()[name = tensor<string, []>("x_163_transpose_x_0"), val = tensor<bool, []>(false)];
            tensor<bool, []> x_163_transpose_y_0 = const()[name = tensor<string, []>("x_163_transpose_y_0"), val = tensor<bool, []>(false)];
            tensor<fp16, [1, 10, 49, 32]> v_cast_fp16 = transpose(perm = var_1238, x = var_1230_cast_fp16_2)[name = tensor<string, []>("transpose_70")];
            tensor<fp16, [1, 10, 49, 32]> x_163_cast_fp16 = matmul(transpose_x = x_163_transpose_x_0, transpose_y = x_163_transpose_y_0, x = softmax_9_cast_fp16, y = v_cast_fp16)[name = tensor<string, []>("x_163_cast_fp16")];
            tensor<int32, [4]> var_1241_perm_0 = const()[name = tensor<string, []>("op_1241_perm_0"), val = tensor<int32, [4]>([0, 2, 1, 3])];
            tensor<int32, [3]> var_1242 = const()[name = tensor<string, []>("op_1242"), val = tensor<int32, [3]>([1, 49, 320])];
            tensor<fp16, [1, 49, 10, 32]> var_1241_cast_fp16 = transpose(perm = var_1241_perm_0, x = x_163_cast_fp16)[name = tensor<string, []>("transpose_67")];
            tensor<fp16, [1, 49, 320]> input_275_cast_fp16 = reshape(shape = var_1242, x = var_1241_cast_fp16)[name = tensor<string, []>("input_275_cast_fp16")];
            tensor<fp16, [320, 320]> model_stages_3_blocks_1_attn_proj_weight_to_fp16 = const()[name = tensor<string, []>("model_stages_3_blocks_1_attn_proj_weight_to_fp16"), val = tensor<fp16, [320, 320]>(BLOBFILE(path = tensor<string, []>("@model_path/weights/weight.bin"), offset = tensor<uint64, []>(10714176)))];
            tensor<fp16, [320]> model_stages_3_blocks_1_attn_proj_bias_to_fp16 = const()[name = tensor<string, []>("model_stages_3_blocks_1_attn_proj_bias_to_fp16"), val = tensor<fp16, [320]>(BLOBFILE(path = tensor<string, []>("@model_path/weights/weight.bin"), offset = tensor<uint64, []>(10919040)))];
            tensor<fp16, [1, 49, 320]> linear_37_cast_fp16 = linear(bias = model_stages_3_blocks_1_attn_proj_bias_to_fp16, weight = model_stages_3_blocks_1_attn_proj_weight_to_fp16, x = input_275_cast_fp16)[name = tensor<string, []>("linear_37_cast_fp16")];
            tensor<int32, [4]> var_1247 = const()[name = tensor<string, []>("op_1247"), val = tensor<int32, [4]>([1, 7, 7, 320])];
            tensor<fp16, [1, 7, 7, 320]> x_167_cast_fp16 = reshape(shape = var_1247, x = linear_37_cast_fp16)[name = tensor<string, []>("x_167_cast_fp16")];
            tensor<fp16, [1, 7, 7, 320]> x_169_cast_fp16 = add(x = x_159_cast_fp16, y = x_167_cast_fp16)[name = tensor<string, []>("x_169_cast_fp16")];
            tensor<int32, [4]> var_1250 = const()[name = tensor<string, []>("op_1250"), val = tensor<int32, [4]>([0, 3, 1, 2])];
            tensor<string, []> input_279_pad_type_0 = const()[name = tensor<string, []>("input_279_pad_type_0"), val = tensor<string, []>("custom")];
            tensor<int32, [4]> input_279_pad_0 = const()[name = tensor<string, []>("input_279_pad_0"), val = tensor<int32, [4]>([1, 1, 1, 1])];
            tensor<int32, []> input_279_groups_0 = const()[name = tensor<string, []>("input_279_groups_0"), val = tensor<int32, []>(320)];
            tensor<int32, [2]> input_279_strides_0 = const()[name = tensor<string, []>("input_279_strides_0"), val = tensor<int32, [2]>([1, 1])];
            tensor<int32, [2]> input_279_dilations_0 = const()[name = tensor<string, []>("input_279_dilations_0"), val = tensor<int32, [2]>([1, 1])];
            tensor<fp16, [320, 1, 3, 3]> const_113_to_fp16 = const()[name = tensor<string, []>("const_113_to_fp16"), val = tensor<fp16, [320, 1, 3, 3]>(BLOBFILE(path = tensor<string, []>("@model_path/weights/weight.bin"), offset = tensor<uint64, []>(10919744)))];
            tensor<fp16, [320]> const_114_to_fp16 = const()[name = tensor<string, []>("const_114_to_fp16"), val = tensor<fp16, [320]>(BLOBFILE(path = tensor<string, []>("@model_path/weights/weight.bin"), offset = tensor<uint64, []>(10925568)))];
            tensor<fp16, [1, 320, 7, 7]> input_277_cast_fp16 = transpose(perm = var_1250, x = x_169_cast_fp16)[name = tensor<string, []>("transpose_66")];
            tensor<fp16, [1, 320, 7, 7]> x_171_cast_fp16 = conv(bias = const_114_to_fp16, dilations = input_279_dilations_0, groups = input_279_groups_0, pad = input_279_pad_0, pad_type = input_279_pad_type_0, strides = input_279_strides_0, weight = const_113_to_fp16, x = input_277_cast_fp16)[name = tensor<string, []>("x_171_cast_fp16")];
            tensor<int32, [3]> var_1265 = const()[name = tensor<string, []>("op_1265"), val = tensor<int32, [3]>([1, 320, 49])];
            tensor<fp16, [1, 320, 49]> var_1266_cast_fp16 = reshape(shape = var_1265, x = x_171_cast_fp16)[name = tensor<string, []>("op_1266_cast_fp16")];
            tensor<int32, [3]> input_281_perm_0 = const()[name = tensor<string, []>("input_281_perm_0"), val = tensor<int32, [3]>([0, 2, 1])];
            tensor<int32, [1]> input_283_axes_0 = const()[name = tensor<string, []>("input_283_axes_0"), val = tensor<int32, [1]>([-1])];
            tensor<fp16, [320]> model_stages_3_blocks_1_mlp_norm_weight_to_fp16 = const()[name = tensor<string, []>("model_stages_3_blocks_1_mlp_norm_weight_to_fp16"), val = tensor<fp16, [320]>(BLOBFILE(path = tensor<string, []>("@model_path/weights/weight.bin"), offset = tensor<uint64, []>(10926272)))];
            tensor<fp16, [320]> model_stages_3_blocks_1_mlp_norm_bias_to_fp16 = const()[name = tensor<string, []>("model_stages_3_blocks_1_mlp_norm_bias_to_fp16"), val = tensor<fp16, [320]>(BLOBFILE(path = tensor<string, []>("@model_path/weights/weight.bin"), offset = tensor<uint64, []>(10926976)))];
            tensor<fp16, [1, 49, 320]> input_281_cast_fp16 = transpose(perm = input_281_perm_0, x = var_1266_cast_fp16)[name = tensor<string, []>("transpose_65")];
            tensor<fp16, [1, 49, 320]> input_283_cast_fp16 = layer_norm(axes = input_283_axes_0, beta = model_stages_3_blocks_1_mlp_norm_bias_to_fp16, epsilon = var_62_to_fp16, gamma = model_stages_3_blocks_1_mlp_norm_weight_to_fp16, x = input_281_cast_fp16)[name = tensor<string, []>("input_283_cast_fp16")];
            tensor<fp16, [1280, 320]> model_stages_3_blocks_1_mlp_fc1_weight_to_fp16 = const()[name = tensor<string, []>("model_stages_3_blocks_1_mlp_fc1_weight_to_fp16"), val = tensor<fp16, [1280, 320]>(BLOBFILE(path = tensor<string, []>("@model_path/weights/weight.bin"), offset = tensor<uint64, []>(10927680)))];
            tensor<fp16, [1280]> model_stages_3_blocks_1_mlp_fc1_bias_to_fp16 = const()[name = tensor<string, []>("model_stages_3_blocks_1_mlp_fc1_bias_to_fp16"), val = tensor<fp16, [1280]>(BLOBFILE(path = tensor<string, []>("@model_path/weights/weight.bin"), offset = tensor<uint64, []>(11746944)))];
            tensor<fp16, [1, 49, 1280]> linear_38_cast_fp16 = linear(bias = model_stages_3_blocks_1_mlp_fc1_bias_to_fp16, weight = model_stages_3_blocks_1_mlp_fc1_weight_to_fp16, x = input_283_cast_fp16)[name = tensor<string, []>("linear_38_cast_fp16")];
            tensor<string, []> input_287_mode_0 = const()[name = tensor<string, []>("input_287_mode_0"), val = tensor<string, []>("EXACT")];
            tensor<fp16, [1, 49, 1280]> input_287_cast_fp16 = gelu(mode = input_287_mode_0, x = linear_38_cast_fp16)[name = tensor<string, []>("input_287_cast_fp16")];
            tensor<fp16, [320, 1280]> model_stages_3_blocks_1_mlp_fc2_weight_to_fp16 = const()[name = tensor<string, []>("model_stages_3_blocks_1_mlp_fc2_weight_to_fp16"), val = tensor<fp16, [320, 1280]>(BLOBFILE(path = tensor<string, []>("@model_path/weights/weight.bin"), offset = tensor<uint64, []>(11749568)))];
            tensor<fp16, [320]> model_stages_3_blocks_1_mlp_fc2_bias_to_fp16 = const()[name = tensor<string, []>("model_stages_3_blocks_1_mlp_fc2_bias_to_fp16"), val = tensor<fp16, [320]>(BLOBFILE(path = tensor<string, []>("@model_path/weights/weight.bin"), offset = tensor<uint64, []>(12568832)))];
            tensor<fp16, [1, 49, 320]> linear_39_cast_fp16 = linear(bias = model_stages_3_blocks_1_mlp_fc2_bias_to_fp16, weight = model_stages_3_blocks_1_mlp_fc2_weight_to_fp16, x = input_287_cast_fp16)[name = tensor<string, []>("linear_39_cast_fp16")];
            tensor<fp16, [1, 49, 320]> x_173_cast_fp16 = add(x = input_281_cast_fp16, y = linear_39_cast_fp16)[name = tensor<string, []>("x_173_cast_fp16")];
            tensor<int32, [4]> var_1285 = const()[name = tensor<string, []>("op_1285"), val = tensor<int32, [4]>([1, 7, 7, 320])];
            tensor<fp16, [1, 7, 7, 320]> x_175_cast_fp16 = reshape(shape = var_1285, x = x_173_cast_fp16)[name = tensor<string, []>("x_175_cast_fp16")];
            tensor<bool, []> x_177_keep_dims_0 = const()[name = tensor<string, []>("x_177_keep_dims_0"), val = tensor<bool, []>(true)];
            tensor<int32, [2]> const_60 = const()[name = tensor<string, []>("const_60"), val = tensor<int32, [2]>([1, 2])];
            tensor<fp16, [1, 1, 1, 320]> x_177_cast_fp16 = reduce_mean(axes = const_60, keep_dims = x_177_keep_dims_0, x = x_175_cast_fp16)[name = tensor<string, []>("x_177_cast_fp16")];
            tensor<int32, [1]> x_axes_0 = const()[name = tensor<string, []>("x_axes_0"), val = tensor<int32, [1]>([-1])];
            tensor<fp16, [320]> model_head_norm_weight_to_fp16 = const()[name = tensor<string, []>("model_head_norm_weight_to_fp16"), val = tensor<fp16, [320]>(BLOBFILE(path = tensor<string, []>("@model_path/weights/weight.bin"), offset = tensor<uint64, []>(12569536)))];
            tensor<fp16, [320]> model_head_norm_bias_to_fp16 = const()[name = tensor<string, []>("model_head_norm_bias_to_fp16"), val = tensor<fp16, [320]>(BLOBFILE(path = tensor<string, []>("@model_path/weights/weight.bin"), offset = tensor<uint64, []>(12570240)))];
            tensor<fp16, []> var_1296_to_fp16 = const()[name = tensor<string, []>("op_1296_to_fp16"), val = tensor<fp16, []>(0x1.5p-17)];
            tensor<fp16, [1, 1, 1, 320]> x_cast_fp16 = layer_norm(axes = x_axes_0, beta = model_head_norm_bias_to_fp16, epsilon = var_1296_to_fp16, gamma = model_head_norm_weight_to_fp16, x = x_177_cast_fp16)[name = tensor<string, []>("x_cast_fp16")];
            tensor<int32, [4]> var_1308 = const()[name = tensor<string, []>("op_1308"), val = tensor<int32, [4]>([0, 3, 1, 2])];
            tensor<int32, [2]> concat_0 = const()[name = tensor<string, []>("concat_0"), val = tensor<int32, [2]>([1, 320])];
            tensor<fp16, [1, 320, 1, 1]> input_297_cast_fp16 = transpose(perm = var_1308, x = x_cast_fp16)[name = tensor<string, []>("transpose_64")];
            tensor<fp16, [1, 320]> input_cast_fp16 = reshape(shape = concat_0, x = input_297_cast_fp16)[name = tensor<string, []>("input_cast_fp16")];
            tensor<fp16, [320]> var_1312_cast_fp16 = squeeze(x = input_cast_fp16)[name = tensor<string, []>("op_1312_cast_fp16")];
            tensor<string, []> var_1312_cast_fp16_to_fp32_dtype_0 = const()[name = tensor<string, []>("op_1312_cast_fp16_to_fp32_dtype_0"), val = tensor<string, []>("fp32")];
            tensor<fp32, [320]> output = cast(dtype = var_1312_cast_fp16_to_fp32_dtype_0, x = var_1312_cast_fp16)[name = tensor<string, []>("cast_65")];
        } -> (output);
}